model-integration/src/test/models/pytorch/pytorch.onnx (onnx, 617 bytes, 4 tensors)

0.bias f4 [5]
0	0x3e90117f	0.28138348
1	0x3e877c87	0.26462194
2	0x3eb0bfad	0.34521237
3	0x3ea7e734	0.3279358
4	0x3e87b90b	0.26508364

0.weight f4 [5, 10]
0	0x3e459ce9	0.19298138
1	0x3e3e1f4d	0.18566628
2	0x3e9cda5c	0.30635345
3	0xbe0136ac	-0.12618512
4	0xbd765770	-0.06014198
5	0x3e98e8da	0.29865152
6	0x3e44bca6	0.19212589
7	0x3e66dfff	0.22546385
8	0xbe4610a4	-0.19342285
9	0x3e2b2e7d	0.16716953
10	0xbd53e9a8	-0.051736504
11	0x3e80ab7f	0.2513084
12	0x3e7f0c42	0.2490702
13	0xbe9ef668	-0.31047368
14	0x3e99ec59	0.3006313
15	0x3e57e43e	0.21083161
16	0xbe9b3ca5	-0.30319706
17	0x3e837b25	0.2567989
18	0xbe5826cf	-0.21108554
19	0x3c26be80	0.010177255
20	0xbe8910fd	-0.26770774
21	0xbe5704c9	-0.20997919
22	0x3e7da4ba	0.2476987
23	0x3e8bd97b	0.27314362
24	0xbe92dd7d	-0.28684607
25	0xbd21d40e	-0.03950887
26	0xbe6765bf	-0.22597407
27	0x3dc15a09	0.09441001
28	0x3e9d14c7	0.30679914
29	0xbe51692f	-0.2045028
30	0x3e1a6949	0.15079226
31	0xbda74fe9	-0.081695385
32	0x3e6abb43	0.22922997
33	0x3e9da751	0.30791715
34	0x3c827e5a	0.01592939
35	0xbdf600cb	-0.1201187
36	0xbd5f89ce	-0.05457478
37	0xbe789438	-0.24275291
38	0x3e38e29b	0.18055193
39	0x3e928a1f	0.28621003
40	0xbd8080a0	-0.06274533
41	0xbe9a950d	-0.30191842
42	0x3d67064c	0.05640249
43	0xbe99d5d9	-0.30045965
44	0xbe955e89	-0.29173687
45	0x3d9520f8	0.07281679
46	0x3e456950	0.19278455
47	0xbdc3c847	-0.09559684
48	0x3e11fb17	0.1425594
49	0xbe334aa0	-0.17508936

2.bias f4 [2]
0	0xbd375863	-0.044762027
1	0xbeb23e46	-0.34813136

2.weight f4 [2, 5]
0	0xbe3ef286	-0.18647203
1	0x3e10a8bc	0.14126867
2	0x3ec4b743	0.38421068
3	0x3ee5f5ea	0.4491418
4	0x3ea3b19b	0.3197144
5	0x3e87ea51	0.26545957
6	0xbdc9cf58	-0.09854001
7	0x3ec3110e	0.3809895
8	0x3c04ca34	0.00810485
9	0xbd634117	-0.055481996
