model-integration/src/test/models/onnx/llm/random_encoder.onnx (onnx, 345336 bytes, 10 tensors)

embedding.weight f4 [10000, 8]
000000 58 13 90 3f 24 43 8a 3f 4d 27 c2 bf 46 82 c1 3e
       1.1255903 1.080174 -1.5168244 0.37794703
000010 ca 0f dd bf 3e 17 83 be 11 0d 9c 3f c1 4b 31 bf
       -1.7270443 -0.2560367 1.2191488 -0.69256216
000020 09 df 28 bf e9 9a 7c bf 67 e3 62 3f ef e1 a8 3f
       -0.65965325 -0.98673874 0.8862824 1.319395
000030 33 2e cc 3e 8e f2 55 3c 0d 19 58 3d 72 c1 dd bf
       0.39878997 0.013058318 0.052758265 -1.732466
000040 68 81 11 3f 3d 0f 43 3f f9 cd 98 3e b3 b3 6a bf
       0.56838083 0.76195127 0.29844645 -0.9168045
000050 69 13 95 bf 55 e4 b0 be 27 d1 e9 be 12 70 e6 bf
       -1.1646549 -0.34549204 -0.45667383 -1.8002951
000060 ca 1a 11 bf 2f 30 3b 3f 8b 88 1d 3f b0 07 5d 3f
       -0.566815 0.731204 0.61536473 0.86339855
000070 94 96 2c 40 db bb 45 3f 6a 42 d8 3f 85 f8 f6 bf
       2.6966906 0.7723977 1.6895268 -1.9294592
000080 ea 01 a1 3e 47 00 22 be be d0 cf 3e 51 fe 97 3d
       0.31446773 -0.15820418 0.40588945 0.07421554
000090 e2 6c 84 bf 13 85 ac 3e 09 3b fe 3b 48 ee da 3d
       -1.0345728 0.33695278 0.0077585024 0.1068998
0000a0 b1 fb 7a 3d 7f c3 2e 3e c2 0c 85 be 3b b9 00 bf
       0.061275188 0.17066763 -0.25986296 -0.5028264
0000b0 d5 5f 86 bf 65 71 a1 3e 57 f4 cc 3e 61 58 69 3f
       -1.0497996 0.31531826 0.40030167 0.9115048
0000c0 c7 da 21 be c5 64 10 40 ed 3c 22 bf 5f b3 9f bf
       -0.15806113 2.2561505 -0.63374215 -1.2476615
0000d0 1e a5 53 be d5 11 0a c0 e7 19 a4 3c 0c 5e 02 bf
       -0.20668456 -2.1573384 0.020031882 -0.50924754
0000e0 0e 0f 1e 3f 44 53 d5 bf 4b a2 6e 3f 98 3a 74 be
       0.6174172 -1.6666036 0.9321639 -0.23850477
0000f0 c7 4a 4a 3e 8a 51 27 bf 78 cb cf 3d 7f af 2b bf
       0.19755088 -0.65358794 0.101462305 -0.6706466
000100 af 5c b8 bf 7e 2d d2 3e 0c 27 7b 3f 76 fe ef 3f
       -1.4403285 0.41050333 0.98106456 1.874953
000110 b8 25 82 3f 3f cb d6 3f 8b 0b 89 be d0 c2 a4 3f
       1.0167761 1.6780776 -0.2676662 1.2871952
000120 e1 f7 47 be a8 a0 d9 bf fb 6f cd bd ff d0 02 3f
       -0.19528152 -1.7002153 -0.10031124 0.5110015
000130 a7 a1 22 3f 48 2b 88 3f f3 aa a5 3f 98 00 98 be
       0.6352791 1.0638208 1.2942795 -0.29687953
000140 e7 b3 9c be d2 09 db be d6 e8 4e 3f f9 01 b9 3f
       -0.30606005 -0.4278093 0.8082403 1.4453727
000150 25 9e 9a bf af e8 a8 3e f1 23 0d be 0d ce 00 c0
       -1.2079512 0.32990023 -0.13783242 -2.0125763
000160 93 06 5c bf 78 93 51 be 1d 73 b2 3f 3a e8 3e 3d
       -0.8594753 -0.20466411 1.394138 0.046608187
000170 74 77 6d 3f 34 c2 1c c0 c1 67 ff 3e 6b a6 fc bf
       0.92760396 -2.4493532 0.49883845 -1.9738287
000180 76 a6 c3 3e 6a 1c 85 3e 7a b4 af 3f 21 74 9d bd
       0.38212937 0.2599824 1.3726952 -0.076881655
000190 7b 16 7c bd 9c a5 62 be cc 10 55 3f 92 38 0f 40
       -0.061544877 -0.22133487 0.83228755 2.2378278
0001a0 ee 99 71 bf 28 eb e7 bf 67 f3 5f bf 4e 06 f3 3f
       -0.94375503 -1.8118639 -0.8748078 1.8986299
0001b0 6f 28 a3 3e 31 57 ce 3f 74 64 48 3f 55 94 65 3f
       0.31866786 1.6120359 0.7827828 0.8967946
0001c0 77 4b 13 3f c7 cd 5e 3f 2c ab c5 be 47 fe 58 bf
       0.57537025 0.8703274 -0.38607156 -0.84762996
0001d0 5f f3 e9 3e 18 0a 47 3d 80 8b ac be 86 a8 5b 3e
       0.4569349 0.04859361 -0.3370018 0.21451005
0001e0 62 a2 11 bf 75 f3 4e 3f d2 ec 7d bf 78 cd 88 bf
       -0.568884 0.80840236 -0.99189484 -1.0687704
0001f0 39 7e 03 3f 7a 28 80 3f 2b fa 2a bf a9 3c e1 bf
       0.51364475 1.0012352 -0.66787976 -1.7596637
000200 55 ac 6e be 7c bb 22 bf 40 d4 9e bf 29 5c f6 3f
       -0.23307927 -0.6356733 -1.2408524 1.9246875
000210 db c2 36 be 49 c2 0f 3e 6c fd 9b bf 3b c4 14 40
       -0.17847769 0.14038958 -1.2186713 2.324477
000220 0e 06 64 3e 28 6e 4e bb 6f ab 96 3e 2c df 71 3f
       0.22267935 -0.0031498764 0.29427668 0.9448116
000230 a2 fb 1c 3f 80 b6 3a 3f 3f fe 22 bc 1c 15 82 3f
       0.6132146 0.7293472 -0.009948312 1.0162692
000240 fe c6 52 3f eb 18 6a 3f 31 92 06 3e 58 1d 00 3f
       0.8233489 0.9144427 0.13141705 0.50044775
000250 cf 1f ea be e2 1c 85 be 76 94 8e be 04 ad 03 be
       -0.45727393 -0.25998598 -0.27847642 -0.12858969
000260 24 01 1f 3f 0a 26 17 bf 3e d5 2a 3e 3e 9e 4e 3f
       0.62111115 -0.5904242 0.16682908 0.8071021
000270 92 31 40 3f c2 fa 27 be e8 d9 c2 3f 7c 0c 2f bf
       0.7507564 -0.1640425 1.522275 -0.68378425
000280 b5 84 05 c0 44 69 5c 3e b4 19 57 bf 6d 2b 21 40
       -2.0862248 0.2152453 -0.84023595 2.5182755
000290 b4 3f 84 bf bd 70 7b 3f 2d f6 6e 3f b5 47 61 3e
       -1.0331941 0.982189 0.93344384 0.2200001
0002a0 22 bf a3 bf 3c 40 1d 3f 63 ce 00 c0 65 89 90 bf
       -1.2792704 0.6142614 -2.0125968 -1.129193
0002b0 29 d5 ba 3f b8 db 74 3f 15 af c7 be c6 8c ef bf
       1.4596301 0.95647764 -0.39000764 -1.8714836
0002c0 21 3c f8 bf de af 9f 3d ec 4f 6c bf 7f 0e 0c 3e
       -1.939335 0.07797216 -0.9230945 0.13677405
0002d0 5a 5e 56 3f 91 d7 f8 be c0 02 a9 3f 09 d7 ed be
       0.8373772 -0.48601964 1.3203964 -0.4645312
0002e0 fe ce 7a bf e6 0c aa bf b1 e9 08 bf 69 52 6b bd
       -0.97972095 -1.3285186 -0.53481585 -0.05745164
0002f0 1c e6 58 3f 96 04 1a 3f d2 a1 44 3e 0f c1 b3 be
       0.8472612 0.6016325 0.19202355 -0.3510823
000300 40 15 c7 bf 22 20 0f 3f ad 4f ae 3f 9c 10 f7 3f
       -1.555336 0.55908406 1.3618065 1.9301944
000310 de 3e 52 3f 82 8f a7 be d8 2b 13 3f 7d 5c bb be
       0.8212718 -0.32726675 0.57488775 -0.36594
000320 31 7a 53 3f 53 a3 8d bf 21 b7 a9 3f 23 e7 02 bf
       0.82608324 -1.1065468 1.3259012 -0.51133937
000330 69 7d 96 bc ca 30 e1 be 8d d9 77 3f 1d 5d e2 bf
       -0.018370347 -0.43982536 0.9681633 -1.7684666
000340 a6 5f 84 bf 92 77 8b 3e 91 68 84 3f 65 36 c8 bd
       -1.034169 0.27239662 1.0344411 -0.09776
000350 c3 13 8b 3f f4 56 34 3f 56 40 07 bf a9 46 b1 3d
       1.0865406 0.7044518 -0.52832544 0.086560555
000360 b6 13 c8 be cc de 6a be 83 e5 bf 3f b1 b8 9e bf
       -0.39077538 -0.22936553 1.4991916 -1.2400113
000370 9c 72 4e be 56 e7 ee 3e 44 db fd 3e 07 4e 27 3f
       -0.20160908 0.4666087 0.4958135 0.65353435
000380 76 7a c4 bf af a2 fc be 95 d1 05 3d 25 9c aa be
       -1.5349872 -0.49342868 0.032670576 -0.33322254
000390 c5 46 fb be 3b 62 9c bf 6b bb 4a 3f 7d 6b d0 bd
       -0.4907743 -1.2217478 0.7919223 -0.10176752
0003a0 89 6b 32 3f 2b 53 62 bf f1 ec f7 be 3b 44 05 bf
       0.69695336 -0.88408154 -0.4842296 -0.52057236
0003b0 c7 a2 c2 be bf ad 24 3e 28 88 52 be 63 a3 b5 3e
       -0.38014814 0.16081904 -0.20559752 0.35476217
0003c0 4e 3e c8 bd 9b eb 34 bf 71 55 bb bf a4 34 c6 3d
       -0.09777509 -0.70672005 -1.463545 0.09678009
0003d0 a8 5e b5 3e d6 77 8d 3e 82 3a e4 3e 2e 7a bb 3f
       0.3542378 0.2763049 0.44575888 1.4646661
0003e0 5a 75 03 3f 8e d6 34 be 1e 7a bc 3e 8f 1a 41 3f
       0.5135094 -0.17659971 0.36811918 0.7543115
0003f0 cb 2b e8 3e 78 82 79 3e 33 e5 4b 3f 47 01 d4 3e
       0.4534591 0.24366176 0.79646605 0.41407225

transformer_encoder.layers.0.self_attn.in_proj_bias f4 [24]
000000 00 00 00 00 00 00 00 00 00 00 00 00 00 00 00 00
       0.0 0.0 0.0 0.0
000010 00 00 00 00 00 00 00 00 00 00 00 00 00 00 00 00
       0.0 0.0 0.0 0.0
000020 00 00 00 00 00 00 00 00 00 00 00 00 00 00 00 00
       0.0 0.0 0.0 0.0
000030 00 00 00 00 00 00 00 00 00 00 00 00 00 00 00 00
       0.0 0.0 0.0 0.0
000040 00 00 00 00 00 00 00 00 00 00 00 00 00 00 00 00
       0.0 0.0 0.0 0.0
000050 00 00 00 00 00 00 00 00 00 00 00 00 00 00 00 00
       0.0 0.0 0.0 0.0

transformer_encoder.layers.0.self_attn.out_proj.weight f4 [8, 8]
000000 2a 31 3d 3e c7 ff 8b be 3e 9e 3d 3e 1e 56 6f be
       0.18475786 -0.2734358 0.18517396 -0.23372695
000010 00 32 43 3d 90 b7 c6 bc 5e 06 28 be 03 23 8f be
       0.047655106 -0.024257451 -0.16408679 -0.279564
000020 02 29 51 be f0 bf ee 3d ac d7 9f 3d d0 5f 81 bc
       -0.204258 0.11657703 0.07804808 -0.015792757
000030 f3 03 88 3e e3 ab 3a be 8c bd b1 bd 84 96 82 be
       0.26565513 -0.18229632 -0.08678731 -0.2550546
000040 93 80 83 be 10 82 12 3e d4 7c 3f be a4 16 85 3d
       -0.25684032 0.14307427 -0.18699962 0.06498459
000050 7e c5 6f 3e de 34 59 3e 2e 23 4d 3e 6a 3e 6c 3e
       0.23415181 0.21211573 0.20032951 0.23070684
000060 26 eb 90 be 84 f9 a5 3d 6d c5 33 be 48 e4 8b 3d
       -0.28304404 0.08104232 -0.1755578 0.068306506
000070 68 93 6e 3d 50 c9 3e 3d 2c 59 84 be 00 c2 88 bc
       0.058246046 0.046578705 -0.25849283 -0.016694069
000080 70 07 48 3d aa 0e 3d 3e 2e da 46 3e 8c 4c a8 3d
       0.048835218 0.18462625 0.19419166 0.08217725
000090 1e 79 8c be e4 12 f3 3d 00 a8 99 3a f7 98 99 be
       -0.27436155 0.118688375 0.0011723042 -0.29999515
0000a0 ce 20 dd bd 9c e8 a2 3d e0 1b 7c 3d 06 6e 22 3e
       -0.107972726 0.07954523 0.06155002 0.15862283
0000b0 74 92 08 be df e9 8b 3e 0a 4d 35 be da b9 08 3e
       -0.13337117 0.27326867 -0.1770517 0.13352147
0000c0 40 2e 83 be 55 24 9d 3e 32 55 ed bd c4 5e d1 bd
       -0.25621223 0.30691782 -0.11588515 -0.10223153
0000d0 7b 4c 98 be 12 2a 1c be 8a b4 24 3e 38 88 6a bd
       -0.2974585 -0.15250424 0.16084495 -0.057258815
0000e0 14 9e 87 bd c4 68 6b be 20 19 ec 3d e4 ff d5 3d
       -0.06621948 -0.22989184 0.1152823 0.10449198
0000f0 ef e3 43 be 79 ae 89 3e 72 14 1a 3e 70 c3 92 bd
       -0.19129919 0.26890925 0.15046862 -0.07166183

transformer_encoder.layers.0.self_attn.out_proj.bias f4 [8]
000000 00 00 00 00 00 00 00 00 00 00 00 00 00 00 00 00
       0.0 0.0 0.0 0.0
000010 00 00 00 00 00 00 00 00 00 00 00 00 00 00 00 00
       0.0 0.0 0.0 0.0

transformer_encoder.layers.0.linear1.bias f4 [16]
000000 3f 9d 8e 3e b1 78 8d 3e 9b 9f 80 3e 57 9e 32 be
       0.27854344 0.27631143 0.2512177 -0.17443214
000010 1c dc a7 3d 9c 4c c5 bd 50 96 08 bd 30 55 dc 3c
       0.081962794 -0.09633753 -0.033346474 0.02689609
000020 42 1b 60 3e f0 a6 b0 3c 50 37 da bd 2a 49 5d be
       0.21885398 0.021563977 -0.10655081 -0.21609941
000030 f2 06 f2 bd 8c 34 ce 3d 44 c8 a7 3d 2e 1d 74 be
       -0.11817731 0.10068616 0.081924945 -0.23839256

transformer_encoder.layers.0.linear2.bias f4 [8]
000000 08 33 0b 3e 02 01 56 be 08 cb 4a be 48 e8 1c 3e
       0.13593686 -0.20898822 -0.19804013 0.15322983
000010 32 bb 7a 3e 60 4d 12 bc bc 15 5e be b4 81 58 be
       0.24485472 -0.00892958 -0.21687979 -0.21143228

transformer_encoder.layers.0.norm1.weight f4 [8]
000000 00 00 80 3f 00 00 80 3f 00 00 80 3f 00 00 80 3f
       1.0 1.0 1.0 1.0
000010 00 00 80 3f 00 00 80 3f 00 00 80 3f 00 00 80 3f
       1.0 1.0 1.0 1.0

onnx::MatMul_127 f4 [8, 24]
000000 d4 82 c0 3d 40 e6 63 be 90 dc aa be b6 93 46 3e
       0.093999535 -0.22255802 -0.333714 0.19392285
000010 e0 13 14 3d f2 7f 7f 3e 7b 32 97 3e 21 23 8f 3e
       0.036151767 0.24951151 0.295307 0.2795649
000020 d5 63 73 be 32 ec db be 9a f1 7d be b2 62 22 be
       -0.23768552 -0.4295364 -0.24799195 -0.15857962
000030 c8 0c e0 bd 80 fd 1e bc 9e 61 67 3e 14 98 df 3d
       -0.10939938 -0.009703994 0.22595832 0.109176785
000040 c0 6e 75 bd ec c2 64 be 62 ab c6 be 28 e4 cb bd
       -0.059920073 -0.22339982 -0.3880263 -0.09955627
000050 b4 47 bd 3d 0e 0c bf be 28 71 c6 be d0 f8 c8 bd
       0.09242192 -0.37313884 -0.38758206 -0.09813082
000060 65 99 a2 be 2e 2c 32 3e 68 7f 7d 3d e3 46 aa 3e
       -0.31757656 0.17399666 0.061889082 0.33257207
000070 c6 78 58 be 80 4f f0 3b 09 5e 88 3e 2d f1 67 be
       -0.21139821 0.007333696 0.26634243 -0.22650595
000080 05 eb ba 3e d1 15 ac 3e 9e 92 74 3e 60 7c dc bd
       0.3650743 0.33610395 0.23884055 -0.1076591
000090 22 8a a0 be ac a7 c8 bd 22 ab 80 be f4 fc a4 be
       -0.31355387 -0.09797606 -0.25130564 -0.32224238
0000a0 dc e7 a7 be 08 e7 94 bd f4 8a 47 be 9e 42 92 be
       -0.32794082 -0.07270628 -0.194866 -0.2856645
0000b0 0b c0 ac 3e c6 24 42 3e ae 5e 00 3e ee 3d 63 3e
       0.33740267 0.1895934 0.12536117 0.22191593
0000c0 00 7e 82 be 67 c2 c3 3e 9a 3c 65 3e 31 68 b1 be
       -0.25486755 0.38234255 0.22386399 -0.34649804
0000d0 06 4a 3e be 48 ca aa be 70 74 1f bd e8 18 2b 3d
       -0.18582925 -0.33357453 -0.038929403 0.0417718
0000e0 9e 84 8f be ba cf 60 3e d6 8f 4c 3e 27 e7 95 3e
       -0.28030866 0.21954241 0.19976744 0.29277918
0000f0 31 84 9f 3e f0 e9 9c 3c c6 7d 5e 3e 13 e5 c6 3e
       0.31155542 0.019154519 0.21727666 0.38846645
000100 4a e6 01 3e 22 d6 c6 be dc 69 c1 bd a8 56 6f bd
       0.12685505 -0.38835245 -0.09444019 -0.05843225
000110 e7 aa d9 be c3 40 9a 3e d0 1e 23 3d 57 46 cc 3e
       -0.425132 0.30127534 0.039824307 0.39897415
000120 2c f6 46 be 4b 33 97 3e 6e 9c 74 3e 1b 56 a4 be
       -0.19429845 0.2953132 0.23887798 -0.32096943
000130 c9 7b d5 be b8 8e 35 be a0 a7 99 3c 36 d3 62 3e
       -0.41696003 -0.17730224 0.018756688 0.22150883
000140 80 83 f8 bb 90 5f 95 bd f3 c5 89 3e 00 1e 1c bb
       -0.0075840354 -0.07293618 0.26908836 -0.0023821592
000150 28 21 a0 be 35 fe a1 3e d5 87 4a be c2 28 55 3e
       -0.31275296 0.31639257 -0.19778378 0.20816329
000160 54 1e c2 3d 80 e8 d4 bd 36 99 54 3e 48 80 c1 be
       0.09478441 -0.10395908 0.2076157 -0.37793183
000170 90 91 43 3d 24 ad 90 be 4c ba b7 be bd e2 cc 3e
       0.04774624 -0.28257096 -0.3588432 0.40016738
000180 93 a0 99 3e 97 62 bf 3e 52 31 8d be bb ca 96 3e
       0.3000532 0.37379906 -0.2757669 0.29451546
000190 1c 70 bb 3d 00 ff 9b 3c 78 80 9a be b6 f1 ba be
       0.091522425 0.019042492 -0.3017614 -0.36512536
0001a0 86 2e 28 3e 01 9f a9 3e 8c 33 c2 bd 4d d1 83 3e
       0.16423997 0.33129123 -0.09482488 0.2574562
0001b0 6f 13 a0 be 65 b9 b9 be 82 3d 45 3e 2a ca 3c 3e
       -0.31264827 -0.36274257 0.19261745 0.18436494
0001c0 f2 aa 2d be 2c 16 56 be d5 79 95 be 25 2c 72 be
       -0.16959742 -0.20906895 -0.29194513 -0.23649652
0001d0 41 0a 4f be 3e cf 15 be 28 f0 3b 3d 26 71 57 3e
       -0.20218755 -0.14629838 0.045883328 0.21039256
0001e0 e9 79 55 be a0 1e 9d bd 67 93 87 3e 76 15 b3 be
       -0.20847286 -0.07671857 0.26479647 -0.3497731
0001f0 7e e6 78 3e 71 73 91 3e 7b 2a af 3e 0e 89 33 3e
       0.24306676 0.28408387 0.34212098 0.17532751
000200 82 85 ad be cc 77 80 bd f6 63 64 3e de 0b 21 3e
       -0.3389092 -0.062728494 0.22303757 0.15727183
000210 6c a7 d6 bd d8 5a 00 3d 22 b0 42 3e 14 07 be 3d
       -0.10481152 0.031336635 0.19012502 0.09278694
000220 a9 21 cc 3e 2a 18 bc be f6 8e 7e be ec 66 52 be
       0.3986943 -0.36737186 -0.24859223 -0.20547074
000230 7c e5 c9 bd c8 41 0c bd 42 e3 49 3e ca dc a8 be
       -0.09858224 -0.03424242 0.19715598 -0.3298095
000240 fd c7 97 be 6e 91 42 3e 17 a7 d6 3e 6c ac 2c be
       -0.29644766 0.1900079 0.41924354 -0.16862649
000250 9c 96 b4 be c4 38 c8 bd 92 d7 73 be 2a db 6c 3e
       -0.35271156 -0.09776452 -0.23812702 0.2313048
000260 52 f3 6c 3e dc 58 cd be 47 d3 da be 2f 95 dd 3e
       0.23139694 -0.40106857 -0.42739317 0.4327788
000270 5d d1 9f 3e af 13 d5 be 88 e9 54 bd cf 2f 85 3e
       0.3121442 -0.4161658 -0.051980525 0.26013038
000280 1c c9 d8 3d ee 7a 48 3e ce fa 49 3e 73 1d 84 3e
       0.105852336 0.19578144 0.1972458 0.25803718
000290 9f e2 84 3e a0 ae d4 be 48 58 ee bd 60 e2 06 bd
       0.25954148 -0.41539478 -0.11637932 -0.03293073
0002a0 50 fe 85 bc b6 47 3e 3e 12 12 86 be 1c bf 38 be
       -0.016356617 0.18582043 -0.26185662 -0.18041652
0002b0 e4 b5 cc 3d f8 90 77 be 1a 99 7c be 1a b3 16 be
       0.099956304 -0.24176395 -0.24667779 -0.1471676
0002c0 45 0d 41 be a6 34 b0 be 00 cb 37 bd 86 43 26 3e
       -0.18852718 -0.34415168 -0.04487133 0.16236696
0002d0 4e 49 02 3e 75 b4 d0 3e d2 35 b2 be df 99 88 3e
       0.12723276 0.40762678 -0.34806687 0.26679894
0002e0 ea 2e 25 3e 38 3c 65 bd 47 18 93 3e ad 0e a6 3e
       0.16131178 -0.055965632 0.2872946 0.32433072
0002f0 ec 99 ce bd 5b 64 9d 3e e1 46 4a be 00 16 6b 3d
       -0.10087952 0.30740628 -0.197536 0.057394028

onnx::MatMul_128 f4 [8, 16]
000000 16 4b 65 be 06 72 e3 bd 4e eb 7a be 6b 51 b2 3e
       -0.22391924 -0.111057326 -0.24503824 0.34827742
000010 69 b0 ad be 88 fb 51 3d 7c ed c3 bd dc 89 14 3e
       -0.33923653 0.05126527 -0.09566781 0.14505714
000020 34 2b d2 3d 2c 8a 11 3e 37 a0 0b be ae 6b f0 bd
       0.102621466 0.14212865 -0.13635336 -0.11739288
000030 51 81 9f be 80 83 db 3d 74 93 9c bd 0d be ac 3e
       -0.31153348 0.10718441 -0.07645312 0.33738747
000040 9a e7 69 be 40 3f c3 bd 73 5f 2a be 2f 8b af 3e
       -0.22842255 -0.09533548 -0.16637973 0.34285876
000050 d0 19 e0 3c 26 bf 2d 3e 00 6e a5 bd 35 1d 8b 3e
       0.027356058 0.16967449 -0.080776215 0.2717072
000060 c5 c6 97 3e bd 94 8a 3e e0 a9 e1 bd 65 df 92 3e
       0.29643837 0.27066603 -0.11018729 0.28686062
000070 08 ba e0 3d d0 d9 7d bd ff 82 87 3e 30 fa 65 3d
       0.10972983 -0.0619753 0.2646713 0.0561468
000080 1c 93 ab be e4 6e da 3d 4c a2 cf bd 40 21 01 3d
       -0.33510673 0.10665682 -0.101383775 0.03152585
000090 ee f7 76 be 9e b7 e9 bd 00 d3 2f bc 3c c6 be 3d
       -0.24118015 -0.11411975 -0.010731459 0.09315154
0000a0 72 2f 18 3e 45 7b 80 be 84 12 55 be 20 56 c7 bc
       0.14861849 -0.25094047 -0.20807844 -0.02433306
0000b0 52 81 6e 3e 50 49 4f bd f5 17 83 be a5 bf 97 be
       0.2329152 -0.050607026 -0.25604215 -0.296384
0000c0 62 6e 61 3e fb 11 a7 3e ad d9 88 be f9 de a2 3e
       0.22014764 0.32630906 -0.26728573 0.3181074
0000d0 70 23 f3 bc 1a 27 97 be 10 93 ae 3d 7c ca a7 be
       -0.029679984 -0.2952202 0.08524144 -0.3277167
0000e0 08 97 c1 3d 90 51 d5 3d 60 0d f7 bc e5 e5 82 be
       0.09452635 0.104159474 -0.030157745 -0.2556602
0000f0 b3 d1 93 3e 87 54 9d 3e 42 c5 45 3e 56 a8 48 3e
       0.28870925 0.30728552 0.19313529 0.19595465
000100 8f 35 82 3e a0 91 2d 3d e2 ef 41 3e 00 c8 36 39
       0.25431487 0.042375207 0.18939164 0.00017431378
000110 58 3f 9c be 83 f5 52 be 97 6f 97 3e b1 83 9c be
       -0.30517077 -0.20601468 0.29577324 -0.30569223
000120 aa 5d 28 3e f0 9a 11 3e 5e 96 1a be 88 82 c0 3d
       0.1644198 0.1421926 -0.15096423 0.09399897
000130 e4 0f 98 be db ff 8d 3e 0c 6a 8d bd 2c 18 d7 3d
       -0.29699624 0.27734265 -0.069049925 0.10502657
000140 82 3c 6c 3e 00 75 14 bb 40 76 15 3c a0 33 55 bc
       0.23069957 -0.0022652745 0.009122431 -0.013012797
000150 80 6d 05 3c 04 b5 a2 3d 04 0a d9 bd f6 0f 43 3e
       0.008143783 0.07944682 -0.105976135 0.19049057
000160 d8 e5 94 bd 1d af 8b be 0f 34 a9 3e 88 3d 73 bd
       -0.07270402 -0.27282038 0.3304753 -0.059384853
000170 8d c0 90 3e b4 17 ec 3d 1e 63 21 3e d2 23 22 be
       0.28271905 0.115279585 0.15760466 -0.15833977
000180 fe f3 3c 3e 9a ae 7b 3e 20 f5 68 3d 23 0e 8f be
       0.1845245 0.24578324 0.056874394 -0.27940473
000190 30 c6 01 3e 0c 76 0a 3e 7c 2b 8f bd 50 87 61 bd
       0.12673259 0.13521594 -0.06990716 -0.055060685
0001a0 d2 9d 15 be d0 0e a7 3d 9f c7 9b 3e a8 62 fb 3d
       -0.14610985 0.08157122 0.30425736 0.122746766
0001b0 92 20 1b 3e ea fd 49 3e 77 8a 96 3e b8 cd 77 3d
       0.15149143 0.19725767 0.29402515 0.060498923
0001c0 9c dd a9 be 75 ff a5 3e 80 ec f9 bd 0d 7b 98 3e
       -0.33176887 0.3242146 -0.12203312 0.2978138
0001d0 a8 7d 56 bd 30 86 28 be 8c bb 9a 3d 66 a8 40 be
       -0.05236593 -0.16457438 0.07555303 -0.18814239
0001e0 a1 28 8b be 3e c6 2a 3e 9c 6e ad be 62 3e 6f 3e
       -0.27179435 0.16677186 -0.3387345 0.23363641
0001f0 c0 dc 35 bc cb 8c 65 be a2 bc 3a 3e e1 80 9f 3e
       -0.011099994 -0.2241699 0.1823602 0.31153014

onnx::MatMul_129 f4 [16, 8]
000000 3c f1 a5 bd 64 85 ee bd f2 88 53 be d8 5c 71 bd
       -0.081026524 -0.11646536 -0.20657709 -0.058926433
000010 4c 83 df bd 4c fb 93 3d 70 8d 47 3e d8 c8 7e 3e
       -0.10913715 0.072256655 0.19487548 0.24881303
000020 e0 ba e3 bc 04 ff cc 3d e0 06 1c 3e dc 87 64 3e
       -0.02779907 0.10009578 0.15236998 0.22317451
000030 bc 6f a2 bd d0 72 9c bd 42 50 3e be ea 19 07 be
       -0.07931468 -0.07639086 -0.18585303 -0.13193479
000040 3a bc 48 3e 2c a4 a1 bd 02 5a 53 3e ca 5e 03 3e
       0.19603053 -0.078926414 0.20639804 0.12829128
000050 20 d8 fb 3d 66 f8 10 be 10 8a 9f bd c0 61 40 3d
       0.12297082 -0.14157256 -0.07790005 0.04696822
000060 d0 7c 6c 3e 70 a0 89 3d e0 d9 d1 3d 28 88 05 3d
       0.23094487 0.06720054 0.102466345 0.03260055
000070 94 05 ed 3d c8 d7 37 3d 4c f3 a6 bd 38 6e 26 3e
       0.115733296 0.04488352 -0.08151874 0.16252983
000080 e6 26 02 be c2 41 5c be 64 c5 4c 3e 62 9c 03 be
       -0.12710151 -0.2150946 0.19997174 -0.12852624
000090 32 3a 4d be 24 d8 d4 3d e8 02 5e 3d 74 98 08 3e
       -0.20041731 0.10392788 0.05420199 0.13339406
0000a0 9c ed f7 bd 12 d3 51 be 28 d4 75 be 7e 78 1e be
       -0.12105867 -0.20490673 -0.24006712 -0.15475652
0000b0 f0 17 de bc 84 41 b0 3d 84 77 d1 3d 26 00 49 3e
       -0.027111024 0.08606246 0.10227874 0.19628963
0000c0 02 a4 76 3e 40 d5 85 bb 76 ad 0f 3e 70 c5 64 3e
       0.24086002 -0.0040842593 0.14031014 0.22340941
0000d0 b0 31 bc 3c 58 b1 6b be ac 6d 56 3e 88 ab 93 3d
       0.022972912 -0.2301687 0.20940274 0.07210451
0000e0 76 93 36 be 02 51 68 be ec 82 19 3e be f4 05 3e
       -0.1782969 -0.22687152 0.14991349 0.13081643
0000f0 ac 48 e3 bd 50 71 c8 3c f8 2e 2e 3d 10 95 5a bd
       -0.110978454 0.024468094 0.04252526 -0.053364813
000100 d2 7b 1b be 48 47 5c 3e 0c 77 d7 3d 90 73 97 bd
       -0.15183952 0.21511567 0.10520753 -0.07395089
000110 a4 28 d2 bd 78 82 7d bd cc d8 44 be 6a f4 50 be
       -0.10261658 -0.061892003 -0.19223326 -0.20405737
000120 e0 c1 49 3d f8 64 67 3e fe 8e 50 3e dc 54 36 be
       0.04925716 0.2259711 0.20367047 -0.17805809
000130 da 04 2a be 70 91 4c 3d 82 4f 49 be e8 63 12 bd
       -0.16603413 0.049943388 -0.19659236 -0.03573981
000140 e4 44 81 bd 1a d0 37 3e 64 b8 13 be 8e b4 6b be
       -0.06311968 0.17950478 -0.14425808 -0.23018095
000150 90 ca d9 bc b0 a5 03 3e f0 71 f0 bd b8 b9 69 3d
       -0.026585847 0.12856174 -0.11740482 0.05706188
000160 d0 b8 32 3e f0 03 46 3e 92 21 0e be 4e 35 0b be
       0.17453313 0.1933744 -0.13879994 -0.13594553
000170 f0 cb ec 3c ce 65 45 be 78 68 d6 bd 48 ef 7b bd
       0.028905839 -0.19277117 -0.104691446 -0.061507493
000180 78 f5 c2 3d c0 bf 78 3d 40 9a 31 3c 18 e9 a6 3d
       0.09519476 0.060729742 0.010839999 0.08149928
000190 dc c7 da bd d6 cc 59 be 6a fc 11 3e 88 74 66 3d
       -0.106826514 -0.21269545 0.14256445 0.056263477
0001a0 20 d8 36 be f8 38 1c 3e 00 61 bc 3a 20 c4 90 3d
       -0.17855883 0.15256107 0.001437217 0.07068658
0001b0 b6 52 2a be 24 83 3f 3e c4 f0 26 3e 00 45 bd ba
       -0.16633114 0.1870237 0.16302782 -0.0014440119
0001c0 ec 8c 05 3e 68 95 78 3e a8 c3 2b 3d 92 23 01 be
       0.13042039 0.24275744 0.04193464 -0.12611225
0001d0 e0 04 c6 3c dc 3a 88 bd 68 b0 bc 3d aa e9 45 be
       0.024172246 -0.066518515 0.09213334 -0.19327417
0001e0 08 3d 0a 3d 2c 0f 89 3d bc 16 84 3d 8a 40 7e be
       0.03374961 0.06692347 0.06449649 -0.24829307
0001f0 60 cf 0b bc ec 4e de bd f8 bc a5 3d 94 4e 78 be
       -0.008533329 -0.10854897 0.080926836 -0.24248725
