model-integration/src/test/models/onnx/llm/random_decoder.onnx (onnx, 735210 bytes, 14 tensors)

embedding.weight f4 [10000, 8]
000000 a5 c7 bb bf ef 62 d0 be 2c 07 71 bf c9 c6 81 3f
       -1.4670302 -0.4070048 -0.9415157 1.013879
000010 38 d9 5c bf 36 0c 14 3d 08 60 33 bf d5 fe d5 3f
       -0.8626895 0.036144458 -0.7006841 1.6718394
000020 d3 34 b2 bf 00 6b d6 be 28 ac 68 3f d3 5d 12 3f
       -1.3922371 -0.4187851 0.9088769 0.57174414
000030 45 e1 77 bf 28 b5 50 3f 19 68 8a 3f ad 83 9f bf
       -0.9682811 0.8152642 1.0813018 -1.2462059
000040 6b d3 30 bf 34 14 36 3f 24 85 28 3f 6c 25 9f 3f
       -0.690726 0.7112458 0.65828156 1.2433295
000050 2f e4 88 bf aa 7b c7 3f a8 12 28 bf 12 e1 08 3f
       -1.0694636 1.5584614 -0.6565347 0.5346843
000060 10 b9 77 3f 3a 13 6d bf bf 0f 2c 3f d9 41 97 be
       0.9676676 -0.9260746 0.67211527 -0.29542425
000070 15 3b df 3e 35 00 97 3f 92 53 73 3d 1d 7b 3a 3f
       0.43599764 1.1796938 0.05940587 0.72844106
000080 ad d4 de bf 77 a8 9e 3f 41 94 a1 3e 4d d9 60 3f
       -1.7408653 1.2395161 0.3155842 0.87831575
000090 e6 2e 14 3f 9e 58 a1 3f 95 f2 73 bf 83 26 83 bf
       0.5788406 1.2605169 -0.95292026 -1.0246128
0000a0 b5 ed b4 3f 36 52 a0 be fa 21 e5 3a 84 e2 b6 be
       1.4135042 -0.31312722 0.0017481439 -0.35719693
0000b0 c0 7e a7 3d f7 71 0a bf a9 8d ff 3d 88 04 08 3e
       0.081784725 -0.54080147 0.124781914 0.13282979
0000c0 28 c0 06 bd b2 17 65 bf 8b 68 8e 3e 99 d9 e6 be
       -0.0328981 -0.8948928 0.27814135 -0.4508789
0000d0 68 ce da 3f c6 d5 fb bf f7 d6 46 bd 88 73 da bf
       1.709424 -1.9674613 -0.04854485 -1.7066507
0000e0 bc b5 42 bf 5d 3e f8 bf c5 93 a7 3f a1 f1 be be
       -0.76058555 -1.9394032 1.3091971 -0.37293723
0000f0 3f 2b 19 3f fd aa c5 3f 6c dc a9 be dd 07 83 3e
       0.59831613 1.5442806 -0.3317598 0.25591937
000100 aa 30 ff bc 3e ab d2 3e a1 9d 51 bf fc 3a b4 3f
       -0.031151135 0.41146272 -0.8188115 1.4080501
000110 f8 18 e8 bf ac cc 5d bf 26 67 62 be af f2 21 bf
       -1.813262 -0.8664043 -0.2210966 -0.6326093
000120 2f 34 a8 3f b4 06 7e 3f d3 83 c0 be 81 03 a7 bf
       1.3140925 0.9922898 -0.37600574 -1.3047944
000130 19 32 09 3f 7d 25 19 bf dd 3f 11 40 33 5c 99 be
       0.5359207 -0.5982283 2.269523 -0.29953155
000140 51 dd 18 c0 fe 36 cd bf 98 c4 00 3d e1 68 66 bf
       -2.388508 -1.6032407 0.031437486 -0.9000378
000150 2f b6 e8 3f b6 07 3f bf 16 92 ba 3e a6 92 66 3e
       1.8180598 -0.7462114 0.3643958 0.2251688
000160 d5 ca d9 bd eb af f0 be cc 5f f8 be f5 34 7e bf
       -0.1063439 -0.47009215 -0.48510587 -0.99299556
000170 09 a2 1c be 0f f6 9c be aa 01 a2 3f 8c 46 bd 3e
       -0.15296187 -0.30656478 1.2656758 0.36967885
000180 36 7e 16 bf e5 4e a7 be 20 32 64 3f 10 b7 cc 3f
       -0.5878633 -0.3267738 0.89138985 1.5993366
000190 49 52 25 3e 80 ba 34 bf 67 06 cf be 8e f5 90 3e
       0.1614467 -0.70597076 -0.40434572 0.28312343
0001a0 06 db 97 be f3 ad 02 3e 34 ad c7 be c1 41 78 be
       -0.2965929 0.12761669 -0.3899933 -0.24243833
0001b0 b3 a0 92 bf cc f5 d5 3e e5 22 91 bc b6 89 81 bf
       -1.1455292 0.4178909 -0.017716834 -1.0120151
0001c0 06 8a 0b 3f ee b6 35 c0 88 16 ab 3e ff bb f4 bf
       0.5450748 -2.8392901 0.33415627 -1.9119872
0001d0 62 ae e1 3f 04 a9 a4 3f ea 75 a3 bf ad ab 20 bf
       1.7631342 1.286408 -1.277036 -0.62761956
0001e0 7c 9e ad 3f 05 7c 16 3f 42 56 08 be ba 28 cd 3e
       1.356399 0.5878299 -0.13314155 0.40070134
0001f0 65 70 45 3f 3e 7b a0 bf 95 e6 07 c0 6d 01 c3 bf
       0.77124625 -1.253761 -2.1234486 -1.523481
000200 5b 19 5d 3d 95 24 9b bf 18 8e b9 3e 91 60 fc be
       0.05397926 -1.2120539 0.3624122 -0.49292424
000210 6b 03 03 40 eb fc 81 3f 45 e8 ad be 86 1f 47 3f
       2.0470836 1.015531 -0.3396627 0.77782476
000220 59 15 5e bf f3 b3 5d bf ed 8e 04 bf c2 e1 1f 3f
       -0.86751324 -0.86602706 -0.5178059 0.62453854
000230 29 d9 c9 3e a9 a5 17 3f 5c 7f 2e 3f 33 58 8a 3f
       0.39423493 0.5923715 0.68163085 1.0808166
000240 2e a7 f4 bf b4 73 d4 bf a5 73 42 bf da 17 0c 3f
       -1.9113519 -1.659781 -0.7595771 0.54723895
000250 5a 6e 60 3d 39 e4 2f be 7e 0a 79 3f 06 59 bb 3e
       0.05479274 -0.17176904 0.97281635 0.36591357
000260 8f bd 69 be c4 63 2e be 95 7b 6b 3e 07 c9 60 bd
       -0.22826217 -0.17030245 0.22996362 -0.054879215
000270 64 dc 30 3f e3 f3 f8 3e 86 7b 3b bf d5 ac ac 3f
       0.6908629 0.4862357 -0.73235357 1.3490244
000280 51 0c d4 bf a0 d6 82 bf 8a 6c 1c bf 0b d6 b8 3d
       -1.6566259 -1.0221748 -0.6110312 0.090252005
000290 18 8d 7c 3f 8a 3c a2 3e 67 5b 97 3f 1f 3a 7d be
       0.9865279 0.31686813 1.1824769 -0.24729203
0002a0 ec 52 fe 3f 6e 3a d0 3f 7d fc 0d 3f b3 a8 d7 bd
       1.9869056 1.6267831 0.5546339 -0.10530224
0002b0 18 e2 af bf 53 01 a7 bf aa a2 e4 3f 30 6e c3 3e
       -1.3740873 -1.3047279 1.7862141 0.38170004
0002c0 bd ab 16 3f cc 88 2f be 86 61 04 bd 69 09 81 be
       0.588558 -0.17142028 -0.032319568 -0.25202492
0002d0 9d 01 e7 3c 3c 87 0b bf 7f cb 4c bf 90 58 4d 3f
       0.028199011 -0.54503226 -0.7999801 0.8021326
0002e0 ff 20 b0 3d 25 96 f1 bc 35 a3 9b bf 01 f3 00 3f
       0.086000435 -0.02949054 -1.2159182 0.50370795
0002f0 f7 cd 48 3f bb 1e 42 be 42 9a 98 bd 68 5b af bf
       0.7843928 -0.18957035 -0.07451297 -1.369977
000300 94 ef ff 3e 16 06 e6 3e 8d 81 f3 bf bf 46 68 3f
       0.4998747 0.44926518 -1.9023911 0.9073295
000310 02 54 75 bf 00 80 85 3f 05 5f 10 3f 88 aa 6d bf
       -0.9583131 1.0429688 0.5639499 -0.92838335
000320 c0 2c 6a 3f 6d 38 86 bf da 04 9e bf f4 f7 dd 3d
       0.91474533 -1.048597 -1.234523 0.10838309
000330 e0 2c 1a bf ed d8 cf 3f 4e 39 9a 3f 34 22 e8 bf
       -0.60224724 1.6238075 1.2048738 -1.8135438
000340 16 80 ae bf ab 6c 08 c0 4b ad 5d 3f 1e f0 87 bf
       -1.3632839 -2.1316326 0.8659255 -1.0620153
000350 a6 b8 19 3e 9a 14 1b 3e ac d8 80 bc 1c 1f 5d 3e
       0.15011844 0.15144578 -0.015728317 0.21593899
000360 74 20 49 3e 9e c7 41 be 81 16 74 be ed 9e 5f be
       0.19641286 -0.18923804 -0.2383671 -0.21837969
000370 97 d0 1d 3f 2a 86 7c 3f 88 22 70 3f a7 85 2f bf
       0.6164641 0.9864222 0.9380269 -0.6856331
000380 f5 ed 85 3f 84 e5 1a 40 ba 04 a9 3f 4f 7a 33 3d
       1.0463244 2.4202585 1.3204567 0.043817814
000390 0f ee cd 3f 34 71 8e 3d f8 29 af 3f 59 0b 86 bf
       1.6088275 0.069551855 1.3684683 -1.0472213
0003a0 55 42 97 3f c9 89 d6 be 3c 82 ca bf a5 e5 ff bd
       1.1817118 -0.41901997 -1.5820994 -0.12494973
0003b0 aa 90 85 3e d8 16 2e be 91 86 97 bf b4 17 24 3f
       0.26086932 -0.17000902 -1.1837941 0.6409867
0003c0 70 8e 75 bf 60 48 8c 3d 74 87 62 3f 53 39 93 3d
       -0.9592047 0.06849742 0.88487935 0.07188668
0003d0 35 4c f1 3e 93 da 86 bf 09 fc 04 3e 33 fd 63 bf
       0.47128454 -1.0535454 0.12986769 -0.89058226
0003e0 ee 69 89 bf 0a c5 9f 3d 17 cc fb 3e d4 17 0a 3f
       -1.0735452 0.07801254 0.49179146 0.5394261
0003f0 85 28 f2 3e 11 de d2 bf 56 6e 1f 3f 87 d8 bc bf
       0.4729654 -1.6474019 0.62277734 -1.4753579

transformer_decoder.layers.0.self_attn.in_proj_bias f4 [24]
000000 00 00 00 00 00 00 00 00 00 00 00 00 00 00 00 00
       0.0 0.0 0.0 0.0
000010 00 00 00 00 00 00 00 00 00 00 00 00 00 00 00 00
       0.0 0.0 0.0 0.0
000020 00 00 00 00 00 00 00 00 00 00 00 00 00 00 00 00
       0.0 0.0 0.0 0.0
000030 00 00 00 00 00 00 00 00 00 00 00 00 00 00 00 00
       0.0 0.0 0.0 0.0
000040 00 00 00 00 00 00 00 00 00 00 00 00 00 00 00 00
       0.0 0.0 0.0 0.0
000050 00 00 00 00 00 00 00 00 00 00 00 00 00 00 00 00
       0.0 0.0 0.0 0.0

transformer_decoder.layers.0.self_attn.out_proj.weight f4 [8, 8]
000000 30 09 b8 bc 97 73 0b be 1d e6 b0 be af 2c 98 be
       -0.022465318 -0.13618313 -0.34550563 -0.2972159
000010 c6 63 77 be 50 d8 e8 3c ca f5 41 3e 55 ca 8f be
       -0.24159154 0.028423458 0.18941417 -0.28084055
000020 02 8e 4a be 9b 48 75 be 14 c0 cf 3d 98 02 02 3d
       -0.19780734 -0.23953478 0.10144058 0.031740755
000030 f0 dd 80 be d3 e9 84 3e e5 8d a5 3e 0a d5 6b 3e
       -0.25169325 0.25959644 0.3233482 0.23030487
000040 5a 35 85 be cd 83 56 be a5 d8 0a be 5b 48 80 3e
       -0.26017267 -0.20948716 -0.13559206 0.25055203
000050 28 17 f9 3d a0 5e b3 3d 84 c0 fb bd b3 11 46 be
       0.1216262 0.08758283 -0.12292579 -0.19342689
000060 76 23 03 3e 2c 9e a1 3d 75 f7 97 3e 70 6b 3a bd
       0.12806496 0.07891497 0.29680982 -0.045512617
000070 18 44 59 bd 8f 80 42 be 12 9a b4 be d7 b1 ae be
       -0.053043455 -0.18994354 -0.35273796 -0.34120056
000080 03 b3 21 be 1c 49 a7 be 4b f5 98 be c0 9e 77 3c
       -0.15790944 -0.32672966 -0.29874644 0.015113533
000090 04 8f 8e bd fe e4 39 3e c3 d7 88 3e e4 4b ab bd
       -0.06960872 0.1815376 0.26727113 -0.08364084
0000a0 30 b9 bc 3d 20 49 d5 3d d4 fa 86 be 2a 2a 34 3e
       0.09215009 0.10414338 -0.26363242 0.1759421
0000b0 54 25 73 be e8 a6 c1 bd b9 6e b4 3e 52 5b 34 be
       -0.23744708 -0.09455663 0.35240725 -0.17612961
0000c0 7c 37 fc bd 40 dc 8e 3b a8 64 21 3d c7 4f 05 be
       -0.1231527 0.004359752 0.039402634 -0.13018714
0000d0 98 f1 c8 3d d9 a9 2f be 5e 78 74 3e 1f 86 94 3e
       0.09811705 -0.17154635 0.23874041 0.29008576
0000e0 58 ba a2 be 30 d0 e0 3c 80 a6 e0 bc 67 22 42 be
       -0.31782794 0.027443022 -0.027423143 -0.18958436
0000f0 0f 58 84 3e 7f 4e 85 be 7f e0 92 3e 98 30 75 3d
       0.25848433 -0.2603645 0.28686902 0.059860796

transformer_decoder.layers.0.self_attn.out_proj.bias f4 [8]
000000 00 00 00 00 00 00 00 00 00 00 00 00 00 00 00 00
       0.0 0.0 0.0 0.0
000010 00 00 00 00 00 00 00 00 00 00 00 00 00 00 00 00
       0.0 0.0 0.0 0.0

transformer_decoder.layers.0.multihead_attn.in_proj_weight f4 [24, 8]
000000 0a f1 75 3e 64 63 f0 bd c3 90 cb 3e a1 22 5f be
       0.2401773 -0.11737707 0.39758882 -0.21790554
000010 4b 34 a7 be c5 5e 8b 3e da cd 89 be e1 9c 7f be
       -0.32657084 0.2722074 -0.26914865 -0.24962188
000020 87 94 81 3e 57 56 bf 3e c3 f5 dc 3e 83 8a b3 be
       0.2530863 0.3737056 0.4315625 -0.35066614
000030 10 d5 5f 3d b0 aa d8 be 60 f7 5d 3d b5 11 8b 3e
       0.05464655 -0.42317724 0.054190993 0.27161947
000040 88 41 9f bd 5c fb 00 be 54 49 f0 3d 6c 5e 57 be
       -0.07776171 -0.12595886 0.11732736 -0.21032113
000050 bb ad dd 3e e8 61 31 be bb 0d ae be 0a 71 95 be
       0.43296608 -0.17322505 -0.3399485 -0.29187804
000060 b4 eb f0 3d 7d fd 79 be 67 1e b6 be a2 a8 5f 3e
       0.11763707 -0.24413104 -0.3557007 0.21841672
000070 64 c3 ec 3d d4 8b b1 be 06 69 1f 3e 5d 33 70 be
       0.11560705 -0.34676993 0.15567407 -0.23457094
000080 3e 98 76 be 69 7b 4a be 17 71 65 be a3 c3 b2 3e
       -0.24081513 -0.1977364 -0.22406422 0.34914884
000090 7d ce 44 be 70 51 c8 be 84 9c 8c be b4 4e d5 3d
       -0.19219394 -0.39124632 -0.27463162 0.10415402
0000a0 21 c2 88 3e 36 0a 00 3e c7 f6 8c 3e 94 4c f5 3d
       0.2671061 0.12503895 0.27532026 0.11977497
0000b0 9d 83 d8 3e b4 c0 8f 3d c2 bd 7c be 40 3d c6 bd
       0.42287913 0.07019177 -0.24681762 -0.09679651
0000c0 6d c2 b2 3e 3a e1 91 be ae 2d 6e be 40 67 65 be
       0.3491396 -0.28492147 -0.23259613 -0.22402668
0000d0 97 a4 ba be 5e a3 84 be d8 65 1c be 00 62 58 3a
       -0.36453697 -0.2590589 -0.15273225 0.0008254349
0000e0 a3 6e 90 3e a5 2c 55 be 53 c4 bd 3e 60 7a 68 be
       0.2820941 -0.20817812 0.37063846 -0.22702932
0000f0 9e 25 3a 3e ba eb ce be 90 f4 21 be 7d c9 82 be
       0.18178412 -0.4041422 -0.1581595 -0.25544348
000100 3e 64 ac be 95 ae dc 3e 3f b7 ab be 23 e2 91 3e
       -0.3367023 0.43101946 -0.33538243 0.2849284
000110 e7 91 db 3e d0 2d 59 bd 2b 72 95 3e 5b 98 d6 3e
       0.42884752 -0.053022206 0.29188666 0.41913113
000120 34 08 8a 3d 17 e1 9c 3e 80 2f 83 bb 84 18 d3 3d
       0.06739846 0.3064048 -0.004003465 0.1030741
000130 e4 ff 89 be 7c 4f 99 bd 51 1f cc be ac 81 f6 3d
       -0.26953042 -0.074858636 -0.39867643 0.12036452
000140 a6 27 8b be 1f 0f d1 3e f6 f6 77 3e 58 f6 34 bd
       -0.27178687 0.4083185 0.24215302 -0.044180244
000150 32 bb 86 be a8 ab 17 be 30 0d 69 3d 36 95 4f be
       -0.26314694 -0.14811575 0.056897342 -0.20271763
000160 a4 c4 37 be 15 8a a2 3e da 04 18 be 37 55 c8 3e
       -0.17946106 0.31745973 -0.148456 0.39127514
000170 01 a7 d7 3e 63 78 9f 3e b6 24 b3 be 22 3c b8 be
       0.421196 0.31146535 -0.34988946 -0.35983378
000180 ef a2 9e 3e 5c c2 e9 3d da de ce be db 3c ae be
       0.30983683 0.11414024 -0.40404397 -0.34030804
000190 10 ec 48 be 00 c2 e2 3c 43 cb 8a be a8 12 68 3d
       -0.196213 0.027680397 -0.271082 0.056658417
0001a0 ff ff 62 be 93 96 9c 3e dc 4c d9 3d ec 84 89 be
       -0.22167967 0.3058363 0.10610363 -0.26859224
0001b0 08 96 db bd 92 79 27 3e f0 b3 46 bd 9e 7d 92 be
       -0.107219756 0.16354969 -0.048511446 -0.28611463
0001c0 65 9e bd 3e 76 d9 71 3e ac f5 cb bd 74 aa 87 3d
       0.37034908 0.23618111 -0.099589676 0.06624308
0001d0 c2 f5 60 3e 50 1b d3 bd c0 f5 3f bd 8f b9 94 3e
       0.21968749 -0.10307944 -0.046865225 0.2904782
0001e0 68 97 48 bd 98 08 83 be 7d a1 a4 3e fb e3 b0 be
       -0.048972517 -0.25592494 0.32154456 -0.34548935
0001f0 95 6f d8 3e 46 c5 01 be bf 17 7b be 98 7b 23 3d
       0.4227263 -0.1267291 -0.24520777 0.03991279
000200 a0 b2 fd bc df 0e 8f 3e 20 89 1a be dc 2f 8a be
       -0.030968964 0.27941033 -0.15091372 -0.2698964
000210 ea e2 ad be dc 96 8e be c3 83 bf 3e 8f 93 b5 3e
       -0.33962184 -0.27849472 0.37405214 0.3546414
000220 8b 99 c2 3e f8 c7 c0 bd 35 ea cf 3e dd bb a0 be
       0.3800777 -0.09413141 0.40608373 -0.31393328
000230 70 8c 8d be 3b 08 bb 3e b2 61 48 3e d0 9c b6 bc
       -0.27646208 0.36529717 0.19568518 -0.02229157
000240 a0 d4 55 3c 00 58 be ba 98 a8 12 be c4 51 ce 3d
       0.013051182 -0.0014522076 -0.14322126 0.10074189
000250 7d 34 84 3e 45 3e ca 3e f2 6d 28 be 80 47 52 3b
       0.25821295 0.39500633 -0.16448191 0.0032086074
000260 54 65 fc 3d 15 43 8b 3e e8 7f 08 3d 58 10 01 bd
       0.12324014 0.27199617 0.033325106 -0.031509727
000270 0a f4 d0 be 9d 84 be 3e 29 d4 6b be ae af 04 be
       -0.40811187 0.3721055 -0.23030151 -0.12957641
000280 97 bc 87 3e 6c 7c b8 3d 52 07 11 3e 65 8f c1 3e
       0.2651107 0.090081066 0.14162949 0.37804714
000290 26 9c 80 be b6 6e 04 3e c8 70 e9 bd 6e 81 1c 3e
       -0.25119132 0.12932858 -0.113984644 0.15283749
0002a0 12 e3 3b 3e 22 98 57 3e 21 f5 bb 3e b6 0b 60 be
       0.18348339 0.21054128 0.36710456 -0.21879467
0002b0 6a 48 1e 3e 3d 94 8a 3e 72 c0 3f be c0 b8 2b bd
       0.15457311 0.27066222 -0.18725756 -0.04192424
0002c0 a7 fc a8 3e 90 7b c0 bc 54 fd 79 be 74 43 bd 3d
       0.33005258 -0.02349642 -0.24413043 0.09241381
0002d0 93 8d 65 be 0d 1c c1 be 49 8b 99 3e 90 f3 88 be
       -0.22417288 -0.37716714 0.2998908 -0.26748323
0002e0 ee 1c 84 be 84 68 bb be 13 3b b4 3e a4 9a 2b be
       -0.25803322 -0.36603177 0.3520132 -0.1675821
0002f0 66 41 05 3e 30 ae 4d 3d 12 8d 1f be 70 2b d6 be
       0.13013229 0.050214946 -0.15581158 -0.41830015

transformer_decoder.layers.0.multihead_attn.out_proj.weight f4 [8, 8]
000000 a6 66 0f 3e 5a ab e5 bd 00 10 a9 be 4f c5 30 be
       0.14004001 -0.11214323 -0.3302002 -0.17262767
000010 d1 66 a7 3e 9c 77 83 3d 60 8e 41 3c c0 a3 42 bd
       0.3269563 0.06419298 0.01181373 -0.047519445
000020 22 3f 3a 3e ee b9 25 be 78 29 e9 bd 2b f0 9c 3e
       0.18188146 -0.16184208 -0.11384863 0.30651984
000030 5b 08 2e be eb 36 a1 be af d9 82 3e 3c 47 b3 bd
       -0.16995375 -0.31487212 0.25556704 -0.08753821
000040 50 7d b3 bc fe 60 e1 bd f3 b3 11 be 42 07 6b 3e
       -0.02191034 -0.11004828 -0.14228801 0.22951987
000050 1c b2 a8 3d 76 69 b1 be 27 7d 34 be 8e 95 06 be
       0.08237097 -0.34650773 -0.17625867 -0.13142988
000060 f0 98 a8 bc fe e4 46 be cc eb c1 bd 20 db 9a bd
       -0.020580739 -0.19423291 -0.09468803 -0.07561326
000070 b6 d9 31 be 36 7e 35 3e 78 a0 1a bd be 7b 53 3e
       -0.17368206 0.17723927 -0.03775069 0.20652673
000080 00 49 a9 3d 11 34 91 be 02 cb 44 3e fa 06 e8 bd
       0.08265877 -0.28360036 0.19218066 -0.11329456
000090 b6 cb 23 3e a1 f0 47 be 1b f9 73 be 6e 81 28 3e
       0.15995678 -0.19525386 -0.23825495 0.16455624
0000a0 b0 13 8a bd 90 c8 1a be a8 70 2e bd 45 0e a2 3e
       -0.06742036 -0.15115571 -0.042587906 0.31651512
0000b0 85 7a 99 be f1 33 97 be 7c 4e d6 3d 54 80 b0 bd
       -0.29976287 -0.29531816 0.104641885 -0.08618227
0000c0 08 6f 33 bd b1 6d 90 be 35 87 9e 3e 10 2f a9 3d
       -0.04380706 -0.28208688 0.3096253 0.082609296
0000d0 b0 17 1a 3d 40 3b d2 3b 53 d8 99 3e a0 63 72 3c
       0.037620246 0.0064157546 0.30047855 0.01479426
0000e0 59 75 b3 3e cf f3 95 3e 59 93 86 3e 9b 86 90 3e
       0.35050467 0.29287574 0.26284292 0.28227696
0000f0 06 45 2c 3e 08 02 7b bd 34 f5 15 be 58 98 4d be
       0.16823205 -0.061281234 -0.14644319 -0.20077646

transformer_decoder.layers.0.linear1.bias f4 [16]
000000 fe 5c 70 3e 54 a2 71 be 62 97 37 3e c0 1d d1 bc
       0.23472974 -0.2359708 0.17928842 -0.025526881
000010 6b 39 84 3e c2 75 9d be d2 e9 0d be a0 fa 7b 3d
       0.25825056 -0.30753905 -0.13858727 0.06151831
000020 ea 35 63 3e 4a 53 5e be 60 ce f7 bc b8 09 49 bd
       0.22188535 -0.2171146 -0.030249774 -0.049081534
000030 0c 50 63 be 98 1b 44 bd a0 2c de 3d a0 ea 6d bc
       -0.22198504 -0.047877878 0.10848355 -0.014521271

transformer_decoder.layers.0.linear2.bias f4 [8]
000000 d2 9c 1e be 04 b7 b4 bd f4 91 b0 3d 88 7d 69 3e
       -0.1548951 -0.0882397 0.08621588 0.22801793
000010 c0 df 37 bd 82 e7 04 be 52 c6 1e 3e b8 e0 08 3e
       -0.04489112 -0.12978938 0.1550534 0.13366973

transformer_decoder.layers.0.norm1.weight f4 [8]
000000 00 00 80 3f 00 00 80 3f 00 00 80 3f 00 00 80 3f
       1.0 1.0 1.0 1.0
000010 00 00 80 3f 00 00 80 3f 00 00 80 3f 00 00 80 3f
       1.0 1.0 1.0 1.0

linear.bias f4 [10000]
000000 60 c2 13 3c f5 30 37 be 80 d7 6f bc 88 7b 48 bd
       0.009018511 -0.1788977 -0.014638782 -0.048945934
000010 8d 7f 91 be c2 1d 57 3e 10 e0 9d 3d 11 89 88 3e
       -0.28417626 0.21007445 0.07708752 0.26667073
000020 e3 15 93 3e f2 d2 6d 3e 02 80 20 3e b0 8f 33 3d
       0.28727636 0.23225 0.15673831 0.043838203
000030 0f 9d a8 3e 89 3f a4 3e e8 b3 23 bd 9c 99 aa be
       0.32932326 0.32079723 -0.039966494 -0.3332032
000040 a1 81 aa be f5 6b 9b 3e 92 95 50 3e 90 ff f7 bc
       -0.33302024 0.30355802 0.20369557 -0.030273229
000050 12 76 2a 3e c0 19 75 3d 14 d1 8b be f4 a9 91 be
       0.16646603 0.05983901 -0.2730795 -0.28449976
000060 74 5b 58 be 64 01 c3 bd 50 ea 91 be 20 83 49 3c
       -0.21128637 -0.095217496 -0.2849908 0.012299329
000070 b6 0d 5c 3e 70 45 f0 3c 00 58 f7 3d 00 af 6b 3c
       0.21489605 0.029329985 0.120773315 0.014384985
000080 f8 4b 99 bd 60 cc 78 bd b8 52 0c 3d 00 24 e0 3a
       -0.07485193 -0.060741782 0.034258574 0.0017100573
000090 75 08 98 3e 9e de 1b 3e f8 3d a2 3d b5 f5 a5 3e
       0.29693952 0.1522164 0.07921976 0.32414022
0000a0 27 0f 71 be c0 5b c2 bc 19 98 9a 3e 32 c1 4b 3e
       -0.23540936 -0.02372539 0.30194166 0.19897917
0000b0 41 c1 9c be 00 1c 5e bd 06 78 57 3e 91 44 a9 3e
       -0.3061619 -0.05422592 0.21041879 0.33060125
0000c0 90 52 9e 3c 78 45 ca bd 90 f0 3c bd 3a b0 2a 3e
       0.019326478 -0.09876531 -0.046127856 0.16668788
0000d0 20 1d 95 be 69 09 ab 3e 5f f7 85 3e da 6f b0 be
       -0.29123783 0.33405617 0.26165292 -0.34460336
0000e0 d8 18 b0 3d 10 fc b3 3c 30 97 7b bd e0 41 c2 3d
       0.085984886 0.021970779 -0.06142348 0.09485221
0000f0 0f 7a 30 be 3e b9 29 3e 94 74 bf bd 81 e2 97 3e
       -0.17234062 0.1657457 -0.093484074 0.29664996
000100 e1 33 80 3e a2 e3 a1 be bc 33 ef bd 50 b8 15 3d
       0.2503958 -0.31618983 -0.116797894 0.036552727
000110 1c f6 c3 bd aa 27 28 3e 51 40 1b be ae 48 71 3e
       -0.09568426 0.1642138 -0.15161254 0.23562881
000120 29 99 8c 3e 54 ee 04 3e 50 0d 96 3c 1c 2b f4 3d
       0.27460602 0.1298154 0.018316895 0.11922285
000130 81 75 b4 3e d7 6a 9c 3e 30 e1 a9 bd 2f b3 b2 be
       0.35245898 0.30550262 -0.08294904 -0.3490233
000140 60 92 6a 3d 71 60 46 be a5 02 83 3e 00 a8 39 bb
       0.0572685 -0.19372727 0.25587955 -0.0028328896
000150 d0 4c 15 3e 6c ad b3 bd 76 7f fb bd 2e e8 34 be
       0.14580083 -0.08773312 -0.122801706 -0.17666695
000160 04 2e f6 bd 84 55 89 be 14 65 7f be c0 a5 c6 3b
       -0.120204955 -0.26823056 -0.24940902 0.0060622394
000170 30 63 15 3e b2 ee 36 3e 30 0f 86 3d b4 e5 be bd
       0.14588618 0.17864493 0.065458655 -0.09321156
000180 0c 89 ef bd b2 45 5e 3e 08 38 51 3d 96 af 71 3e
       -0.116960615 0.21706274 0.051078826 0.23602137
000190 40 fb 65 bc 51 69 aa 3e 76 db 1d be 07 02 af 3e
       -0.014036953 0.33283475 -0.15415749 0.34181234
0001a0 ad 4d a6 3e e0 28 b3 3d 30 91 8b be 5a 5b 54 be
       0.32481137 0.08748031 -0.27259207 -0.20737973
0001b0 ae 5e 79 3e 65 fa ac be 20 1d 48 3c f8 a3 b2 3d
       0.24352524 -0.33784786 0.012213975 0.08722681
0001c0 af db 86 3e 00 27 0f be e3 65 ac 3e a8 05 a1 bd
       0.2633948 -0.13979721 0.33671483 -0.07862407
0001d0 1d 5b 90 be f4 df a8 3d 27 fd ab be aa 2b 47 3e
       -0.28194514 0.08245841 -0.33591577 0.1945025
0001e0 0b 68 a0 be b6 0c 39 3e d8 a0 9d 3d 66 2e 38 be
       -0.31329378 0.18071255 0.07696694 -0.1798645
0001f0 f4 30 86 be 26 04 88 be 66 c0 3c 3e b9 26 91 3e
       -0.26209223 -0.26565665 0.18432769 0.28349856
000200 a8 01 61 3d 80 43 cd bc 53 f5 26 be 68 ce 82 be
       0.05493322 -0.0250566 -0.16304521 -0.255481
000210 5e 58 96 be 70 25 15 3d fe 11 b0 be 62 3d 0e 3e
       -0.29364294 0.036412656 -0.34388727 0.13890603
000220 0e 2d 5a 3e ac 5c 6a be ee 4a 14 3e 84 2e 2a be
       0.2130625 -0.22886914 0.14481708 -0.16619307
000230 c0 da 7b 3d fa 78 14 be 6d 8a b0 3e d2 1c 6a 3e
       0.061487913 -0.14499274 0.3448061 0.22862557
000240 3a 23 86 be e7 0e 81 3e 2a be 6c be 48 c6 e6 bd
       -0.2619875 0.25206682 -0.23119417 -0.11268288
000250 13 37 a9 be 00 eb 1a be aa bb 50 3e 5a e1 0c 3e
       -0.3304983 -0.15128708 0.20384088 0.1375784
000260 d0 cb 86 bc f6 6b b1 be eb d1 ad 3e e5 d5 5e be
       -0.016454607 -0.3465268 0.33949217 -0.21761282
000270 0c 81 03 3e 30 84 23 3d 77 07 9a 3e da e3 5b 3e
       0.12842196 0.039920986 0.3008382 0.21473637
000280 28 eb 86 bd 8c 40 98 bd 26 9e 77 3e c7 64 b4 be
       -0.06587821 -0.07434186 0.24181423 -0.35233137
000290 86 af 82 be 98 69 74 3d 93 8f a6 3e 37 71 af 3e
       -0.2552454 0.059671015 0.32531413 0.34266064
0002a0 c8 03 58 3d 3b 54 8c 3e 7e ed f6 bd fe ad 5a 3e
       0.05273798 0.27408013 -0.12057017 0.21355435
0002b0 b4 26 bb 3d e2 10 d6 bd 68 02 13 3e d0 bf f7 bd
       0.091382414 -0.10452439 0.14356387 -0.12097132
0002c0 71 9d 81 3e 31 46 20 be e0 d4 85 bd 5b dd a2 3e
       0.2531543 -0.15651776 -0.06534743 0.31809506
0002d0 a0 fe 86 bd 02 22 6d 3e 5c 52 47 be c0 40 b0 3c
       -0.065915346 0.23157504 -0.19465011 0.02151525
0002e0 db fd 96 3e a9 b4 0c be 07 32 b3 be b0 f1 02 bd
       0.2949055 -0.13740791 -0.34999105 -0.031968772
0002f0 f0 9b f5 bc 4b 8a 1e be 39 68 98 be 40 cb 9a 3b
       -0.029981583 -0.15482442 -0.29767016 0.0047239363
000300 40 78 b0 3d 0e 18 4d 3e d0 cb dd 3c 7a 37 3c 3e
       0.08616686 0.20028707 0.027074724 0.18380538
000310 a0 e8 31 bd 00 2f 3b 3d dd 15 80 3e 0d cf 9e 3e
       -0.04343474 0.04569912 0.2501668 0.31017342
000320 62 71 1c 3e c1 c8 8e 3e cc 21 8e 3d 5d 49 ab be
       0.15277627 0.27887538 0.0694004 -0.3345441
000330 43 b9 87 3e 10 9a 52 3d bf 06 96 3e 58 d1 18 3d
       0.2650853 0.051416457 0.29302022 0.03730902
000340 40 49 db bb 70 20 ce 3d 3d 89 a8 3e e2 95 71 3e
       -0.0066920817 0.10064781 0.32917204 0.23592332
000350 88 d9 af 3d 5b f9 20 be ba 9e 94 be fd 80 40 be
       0.08586413 -0.15720122 -0.2902735 -0.18799205
000360 19 47 a9 3e a0 9c 11 3e 8e 70 e0 bd ac 88 d1 3d
       0.33062056 0.14219904 -0.10958968 0.10231146
000370 9e 1d 53 be 28 be 14 bd b9 78 1f be 10 bd d2 3c
       -0.20616767 -0.03631416 -0.15573396 0.025724918
000380 d6 06 31 3e a4 b2 2b be 22 f1 e5 bd 78 16 3c bd
       0.17287764 -0.16767365 -0.11227633 -0.045919865
000390 06 a3 6f be e6 4e a9 be 30 aa 48 3d 24 9f c9 3d
       -0.23402032 -0.33068007 0.04899043 0.09844807
0003a0 a8 50 c1 3d 72 cb 77 be 4f fc 88 3e 50 38 8f bc
       0.09439212 -0.24198702 0.26754996 -0.017482907
0003b0 87 cf b4 3e 80 c4 9c 3d af fa 08 be 9b a7 05 be
       0.3531458 0.07654667 -0.13376878 -0.13052218
0003c0 fa 24 57 be 20 74 4b 3d 2c 5a 32 be 25 9f 8c 3e
       -0.21010199 0.049671292 -0.1741721 0.27465168
0003d0 46 ca 51 3e 90 f7 c0 bc e6 88 3b 3e d8 66 14 bd
       0.20487317 -0.023555547 0.18313941 -0.036230892
0003e0 31 01 99 be 00 e8 d0 3a 97 8e 8f 3e 29 1a 8e 3e
       -0.2988372 0.0015938282 0.28038475 0.27754334
0003f0 62 12 35 be a3 bc 5e be 00 9f a1 bd 76 45 b2 be
       -0.17682794 -0.21751647 -0.07891655 -0.3481862

onnx::MatMul_263 f4 [8, 24]
000000 8a 48 5d 3e 20 9e 54 bd c4 f2 8c bd 3e cb 28 be
       0.21609703 -0.051908612 -0.06882241 -0.1648378
000010 c1 12 bb 3e 08 e9 fd bd 24 75 c8 3d d6 c1 7e 3e
       0.36537746 -0.12397963 0.09787968 0.2487863
000020 a9 3a 97 3e f0 a3 52 be ab 33 d5 3e 20 56 49 bc
       0.29536942 -0.2057035 0.41640982 -0.0122886
000030 c0 ca 60 bd d0 55 88 bc 50 ce a9 be 2d 53 9c be
       -0.054880857 -0.016642481 -0.33165216 -0.30532208
000040 34 f0 a4 bd f3 a7 d0 3e fb d2 80 3e f7 c3 7e be
       -0.080536276 0.40753135 0.25160965 -0.24879442
000050 8f 83 74 be 74 ee 8f be 28 c4 d5 be a0 0c 89 be
       -0.2387831 -0.28111613 -0.41751218 -0.26767445
000060 6f c9 b3 3e b7 c8 d6 3e 37 d7 49 be a4 b4 f5 bd
       0.3511462 0.41950008 -0.19711004 -0.11997345
000070 46 62 5c 3e 48 fb 4b 3d 5f 90 48 be 9e f0 37 be
       0.21521863 0.049800187 -0.19586323 -0.17962882
000080 28 09 94 bd 43 89 b4 3e 9c 35 b9 be 1b 6e cd 3e
       -0.07228309 0.35260972 -0.36173713 0.40123066
000090 49 f0 a9 3e 28 2f 83 be bf 5d c4 3e 6e 88 cd be
       0.33191136 -0.25621915 0.38352773 -0.4014315
0000a0 20 f3 cc be 20 42 bc 3c 3a 6a ae be 53 e4 8a 3e
       -0.4002924 0.02298075 -0.3406542 0.27127323
0000b0 fb cf c3 3e ad 19 d9 3e b6 81 78 3e 3c 19 8a be
       0.38244614 0.42402402 0.24268231 -0.26972377
0000c0 6e 58 7f 3e 20 98 53 3c a4 06 bb be 4d d8 98 3e
       0.24936077 0.012914687 -0.36528504 0.29852524
0000d0 a4 fe d5 be 3c 42 22 be 04 ad 16 be 22 1b c1 be
       -0.41795838 -0.15845579 -0.14714438 -0.37716013
0000e0 88 80 6d be 54 92 25 be dd 2c d8 3e d8 83 9a bd
       -0.23193562 -0.16169101 0.42221728 -0.075446784
0000f0 a9 8b a2 be cd 64 ce 3e b2 f4 02 be a1 17 97 3e
       -0.31747177 0.4031128 -0.12788656 0.29510215
000100 34 55 dc bd 4b 28 92 3e fa 83 4c 3e 42 99 a9 be
       -0.10758439 0.28546366 0.1997222 -0.3312474
000110 56 f3 ac be 02 1c 44 3e 33 c5 8d 3e 2c 9b d9 bd
       -0.337794 0.19151309 0.27689514 -0.106253
000120 6f e6 c7 3e 28 d4 5d bd 90 a4 a5 be 9c bb ff 3d
       0.39042994 -0.054157406 -0.32352114 0.124869555
000130 9e 27 32 3e 6d c7 d3 3e 61 75 b4 3e e0 ac 9a be
       0.17397925 0.41363087 0.35245803 -0.30210018
000140 00 be 29 be 30 fe a3 3c a0 f6 c3 be 24 8f ac 3d
       -0.16576385 0.020018667 -0.38274097 0.084257394
000150 1e 02 a3 be b0 8a 62 3d ce 20 33 3e d4 25 70 be
       -0.31837553 0.055308044 0.17492983 -0.2345193
000160 86 0e 67 be 90 ec a2 bc 0a 53 60 3e 66 1d 26 3e
       -0.22564134 -0.019888192 0.21906677 0.16222152
000170 24 f4 ea 3d fd 03 bc 3e fc e9 c9 be 27 f5 be be
       0.114723474 0.36721793 -0.39436328 -0.3729641
000180 cc f5 ed bd 3e 42 41 3e 88 7e 63 3d d0 fd 83 3c
       -0.11619148 0.18872926 0.05554059 0.016112238
000190 b6 ec 72 3e e0 b9 93 bd ce 23 0c 3e b4 2b dc 3d
       0.2372311 -0.07213187 0.13685533 0.10750523
0001a0 10 3b bb 3c 4e 36 3a 3e 12 79 d1 be 1b ae a2 3e
       0.022855312 0.18184778 -0.40912682 0.31773457
0001b0 b5 90 a7 be 97 0d 67 be 0a b6 91 be 8c be c9 3d
       -0.3272759 -0.22563778 -0.28459197 0.09850797
0001c0 5a 69 51 3e 96 cd 0c be f3 5a 9c be a4 7e f0 3d
       0.20450345 -0.137503 -0.3053814 0.11742905
0001d0 1c f3 45 be 5f 01 ac be d2 54 03 3e 81 e4 6b be
       -0.1933102 -0.33594796 0.12825325 -0.23036386
0001e0 da 29 2c 3e 60 41 69 bd af 21 d8 3e ce 05 72 3e
       0.1681284 -0.056947112 0.422132 0.23635027
0001f0 68 a7 83 bd f9 cf 90 3e d2 cd 02 3e 04 28 d0 be
       -0.064284146 0.2828367 0.12773827 -0.4065553
000200 10 59 d8 bd 75 bf bf 3e 9e 35 0f 3e 14 16 e9 3d
       -0.10563862 0.37450758 0.13985297 0.11381164
000210 2c ee 94 be 78 45 42 be 9f be 83 be 4f 0b 91 3e
       -0.2908796 -0.18971813 -0.2573137 0.2832894
000220 db 1a b1 3e c1 d5 95 3e a0 64 30 3d 24 46 31 be
       0.34590802 0.29264644 0.043064713 -0.17311913
000230 17 b6 a6 be 4c db 62 be 34 3d b8 bd 12 10 2b 3e
       -0.325608 -0.22153968 -0.089960486 0.16705349
000240 94 f9 83 be c4 4d c7 3d 40 00 f0 3c 99 f9 d4 be
       -0.2577635 0.097316295 0.029296994 -0.41596678
000250 bf 26 cc be 9c b0 9e 3d 3a 90 3b 3e 22 26 6c 3e
       -0.3987331 0.07748529 0.18316737 0.23061422
000260 a8 6c 5e be 73 28 c8 be 8e 12 0e 3e 4e c3 31 be
       -0.21721137 -0.3909336 0.13874266 -0.17359659
000270 9e ed 70 3e a0 48 e7 bc b9 2f aa 3e f1 e3 99 be
       0.23528144 -0.028232872 0.33239534 -0.30056718
000280 3c 57 95 bd c0 da 04 3d e8 3d 33 be bd 13 bb be
       -0.07292029 0.03243518 -0.17504084 -0.36538497
000290 e2 0a 57 3e 28 cc 97 be f8 83 5e bd 10 19 c0 3c
       0.21000245 -0.29647946 -0.054325074 0.02344945
0002a0 f8 55 a0 be b0 cc c3 bc f1 61 9d 3e 87 e8 8f 3e
       -0.3131559 -0.023901314 0.30738786 0.28107092
0002b0 67 8e 83 3e ec 22 be 3d 20 c1 db bc 60 db d3 3c
       0.25694582 0.092840046 -0.026825488 0.025861442
0002c0 d2 f6 30 be 4d 7e b6 be 0c 1c 98 bd 72 75 dc be
       -0.17281654 -0.35643235 -0.074272245 -0.43058354
0002d0 e0 fd 43 bc 84 3d 3b be 9a 4d 3a 3e a3 f4 bc 3e
       -0.011962384 -0.18285185 0.18193665 0.36905393
0002e0 82 d9 30 3e 35 71 8c 3e a1 07 9c be b0 41 a3 be
       0.17270473 0.2743012 -0.3047457 -0.31886053
0002f0 bb 6f d8 3e e0 37 39 bd 20 3b 76 3c bf 00 ae 3e
       0.42272744 -0.045219302 0.015028745 0.33984944

onnx::MatMul_266 f4 [8, 16]
000000 86 5a 93 be e2 e1 4a 3e f3 65 62 be a4 0e 94 3d
       -0.2878 0.1981273 -0.22109203 0.07229355
000010 3b 44 90 3e 64 c4 e8 3d 20 8c 1f 3c 00 64 2f 3c
       0.28177056 0.113655835 0.009737998 0.010704994
000020 df ff 9d 3e e5 be 83 be 41 40 98 be 9e 90 5d 3e
       0.30859277 -0.25731578 -0.29736522 0.21637198
000030 18 ef 21 3d 5c 72 14 be f2 49 63 3e b5 1e 98 3e
       0.03953466 -0.1449675 0.22196177 0.29710928
000040 84 a2 99 be 57 78 9e be 18 31 38 3d 7b d4 97 3e
       -0.30006802 -0.30951187 0.044968694 0.29654297
000050 08 c2 65 bd ea 2e 91 be 84 c5 b6 3d 20 55 43 3d
       -0.056093246 -0.28356105 0.08924392 0.047688603
000060 20 2c 53 be 08 eb fe 3d f8 3c 9c be af 2b 3e be
       -0.20622301 0.124471724 -0.30515265 -0.18571351
000070 ac 03 94 3d f3 67 8e be c2 3b 92 be 81 5f 1e be
       0.07227263 -0.27813682 -0.28561217 -0.1546612
000080 00 42 6d bc 42 94 09 be 20 59 12 be c5 66 92 3e
       -0.014481068 -0.13435462 -0.14291811 0.28594032
000090 32 e3 fd bd 2c 11 bc bd d0 2b dd bc 68 be 5a 3d
       -0.1239685 -0.09182963 -0.02699843 0.05340424
0000a0 31 25 97 be 28 ad ae be b1 11 af be 05 bf 89 3e
       -0.29520562 -0.34116483 -0.34193185 0.2690355
0000b0 14 62 a9 bd 94 fd 3f be bf e0 53 be 92 aa 48 3e
       -0.0827066 -0.18749076 -0.20691203 0.19596317
0000c0 b0 75 54 bd 58 0d fa 3d ac e3 9e be 8b cc ae be
       -0.051870048 0.12209576 -0.31033075 -0.3414043
0000d0 f8 5d 91 3d 68 97 4c bd 46 96 18 3e 30 a1 4d bd
       0.07098001 -0.04994908 0.14901075 -0.05020255
0000e0 df a3 af 3e d9 ab 07 be 96 cf 89 be 20 4b 8d be
       0.3430471 -0.13249148 -0.26916188 -0.27596378
0000f0 ea a7 09 3e 6c 18 d1 bd 4e 71 1c 3e 20 8d 50 3d
       0.1344296 -0.10209736 0.15277597 0.050915837
000100 e6 8e 09 3e 80 2a 16 bb f4 5a a6 be d4 12 61 be
       0.13433418 -0.0022913516 -0.32491267 -0.21979839
000110 7e 07 50 be 34 81 a3 bd 7e 41 37 3e 10 05 81 3c
       -0.20315358 -0.07983628 0.17896077 0.015749484
000120 ec e0 6c be 4e 59 32 3e 48 30 82 3d f4 87 0d be
       -0.23132676 0.1741688 0.06356865 -0.13821393
000130 ae 7f aa be aa 69 45 3e 46 52 36 3e 9a 5d 25 3e
       -0.33300537 0.19278589 0.17804822 0.16148987
000140 98 b6 da 3d 22 59 10 be db 40 90 be 8e e2 30 3e
       0.10679358 -0.14096501 -0.2817448 0.17273924
000150 68 1a 37 be e4 31 d8 3d 40 12 8e 3d bf 8c 99 be
       -0.17881167 0.10556391 0.06937075 -0.29990193
000160 30 d7 9e be e6 36 09 3e 70 95 e3 3d 58 f9 82 be
       -0.3102355 0.13399848 0.11112487 -0.2558086
000170 c0 8c 8a bc 70 07 94 bd 46 a9 03 be 20 f2 ab 3c
       -0.016912818 -0.07227981 -0.12857541 0.020989478
000180 1a 28 55 3e 80 ee c4 3d 33 03 23 be 41 95 88 be
       0.20816079 0.09615803 -0.15919189 -0.26676372
000190 ec 44 bd 3d d2 b1 00 3e 8e 5a 9e be 4b 04 10 be
       0.092416614 0.12567833 -0.30928463 -0.14064138
0001a0 e6 04 99 be 65 f7 92 be 8b 0b 84 3e 02 b1 31 3e
       -0.2988655 -0.28704372 0.25790057 0.1735268
0001b0 c0 cd 81 bc c6 a7 54 3e c8 ff 4c 3d 64 1e 12 3e
       -0.01584518 0.20767125 0.05004862 0.14269406
0001c0 64 00 b1 be 36 6a 31 3e 06 01 16 3e 11 f8 5e be
       -0.3457061 0.17325673 0.14648828 -0.21774317
0001d0 08 c3 92 3d 99 1f a6 3e 47 66 93 be 29 ef a2 3e
       0.071661055 0.32445982 -0.2878897 0.3182309
0001e0 16 bd 4d 3e 90 d8 3b be 9c c0 dd bd 7a 11 0d be
       0.20091662 -0.18344331 -0.10827753 -0.13776198
0001f0 2e 4c e9 bd 6c 37 63 be c9 76 90 3e c2 d3 2d 3e
       -0.11391483 -0.2218911 0.28215626 0.1697531

onnx::MatMul_267 f4 [16, 8]
000000 96 c2 7d be 58 56 11 be 90 f3 5a bd fc 51 c3 bd
       -0.2478126 -0.14193094 -0.053454936 -0.09537122
000010 0a 79 16 be 2e c5 47 3e b8 3b 53 bd b8 83 21 3e
       -0.1469461 0.19508812 -0.051570624 0.15772903
000020 5c aa 5d 3e 0e 71 24 3e 40 96 63 bd 26 10 7f be
       0.21647018 0.16058752 -0.05556321 -0.24908504
000030 6c 77 39 be d0 23 10 3e b8 ed 7b bd b0 f6 1f 3d
       -0.18111962 0.14076161 -0.061506003 0.03905362
000040 e0 94 bc bc 24 fc 9a bd c6 57 61 3e e4 a4 dc bd
       -0.023020208 -0.07567623 0.22006139 -0.10773638
000050 c0 f2 be 3c c0 01 78 3c c0 62 01 be 72 b3 08 3e
       0.023309112 0.015137136 -0.12635326 0.13349703
000060 26 14 2f be 9e e3 49 3e f0 bc 9a bc 54 d0 58 be
       -0.1709753 0.19715735 -0.01888892 -0.21173221
000070 80 36 2d bd 10 f8 d8 bc 36 ba 30 be 44 68 84 bd
       -0.042288303 -0.026485473 -0.17258534 -0.064651996
000080 1a f6 62 be a8 ad 32 bd 3a 45 51 3e d0 8f ae bc
       -0.22164193 -0.043622643 0.20436564 -0.02130881
000090 88 23 81 bd ca 83 5c 3e b0 8f 85 3d 4a 82 36 3e
       -0.06305605 0.21534649 0.06521547 0.17823139
0000a0 9c 83 a5 bd 60 6b 4b bd f0 35 7b 3e 6a ca 55 be
       -0.08081743 -0.049662948 0.24532294 -0.20877996
0000b0 18 29 70 3e fc 92 b4 bd d0 a6 c5 3c d8 9f 9f 3d
       0.23453176 -0.088170975 0.024127394 0.0779416
0000c0 ac 98 31 3e 7c c2 72 3e f0 ee 5b bd 5c f1 c5 bd
       0.17343396 0.23707002 -0.053694665 -0.09665176
0000d0 38 ba 9c bd b0 dc 11 3d 9c 17 c4 3d d0 dc 42 bd
       -0.07652706 0.035610855 0.09574816 -0.047573864
0000e0 26 0e 6a 3e 54 a4 28 3e a4 88 32 3e f0 c2 28 3d
       0.2285696 0.16468936 0.17434937 0.041201532
0000f0 74 e1 89 bd 9c 02 3e 3e 3c a6 b7 bd 40 df 58 bd
       -0.06732455 0.18555683 -0.089672536 -0.052947283
000100 5c 7b 72 3e b4 73 da bd dc 78 5d be 60 6c e1 bc
       0.2367987 -0.106666 -0.21628135 -0.027517498
000110 70 d6 1b be 00 fe 36 bd f4 2f 41 be 64 6d 65 be
       -0.1521852 -0.044675827 -0.18865949 -0.2240501
000120 5e 33 1d be 20 14 d2 3d d0 b5 ee bd f8 48 3f be
       -0.15351626 0.10257745 -0.11655772 -0.18680179
000130 d4 25 d3 3d 48 ff 79 3e f2 9a 6d 3e 10 c0 d4 bc
       0.103099495 0.24413788 0.23203638 -0.025970489
000140 6c 2a 77 3e f2 be 44 3e 54 ee d6 bd 46 fd 7f 3e
       0.24137276 0.19213465 -0.10494676 0.2499896
000150 78 52 37 bd 8c 2b 37 3e 0c e9 70 3e 2e 47 75 3e
       -0.044756383 0.17887706 0.235264 0.23952934
000160 18 a9 23 3d d0 ec bc bd fc 96 dd bd 02 45 28 be
       0.039956182 -0.09224856 -0.108198136 -0.16432574
000170 00 59 fd 3a c0 85 8b 3d 98 59 8b 3d 54 9f b8 3d
       0.0019328892 0.0681262 0.06804198 0.090147644
000180 56 71 4f be 9c 66 b3 bd 60 ed 78 3e 20 d2 11 bc
       -0.20258078 -0.087598056 0.24309301 -0.008900195
000190 60 e8 df 3c de 66 3f 3e 40 7b 0b bd 2c 9c a9 bd
       0.027332485 0.18691584 -0.034053087 -0.082817405
0001a0 70 33 93 3d 22 52 1e be a8 76 89 3d e4 62 56 3e
       0.07187545 -0.15461019 0.06712085 0.20936161
0001b0 e0 ea 8c bc a0 88 26 bc 5a 1b 6f be 2a c9 19 be
       -0.01720184 -0.01016441 -0.23350278 -0.15018144
0001c0 86 bc 30 be 30 63 16 be e8 b6 ec bd dc 29 a6 3d
       -0.17259416 -0.14686275 -0.11558324 0.08113453
0001d0 c0 3c 2e bd e6 9b 19 3e e8 5d b6 bd 4e 1a 12 be
       -0.042538404 0.15000877 -0.0890463 -0.14267847
0001e0 40 d6 61 be b4 65 5a be a0 75 08 bc ac 1c bc bd
       -0.22054386 -0.21327859 -0.008328825 -0.09185156
0001f0 bc cb 3b be fc fd bd bd 76 79 5e 3e e4 28 0d 3e
       -0.18339437 -0.09276959 0.21726021 0.1378513

onnx::MatMul_268 f4 [8, 10000]
000000 be cd 7c 3e 12 3e fc bd 92 f6 29 3e 36 7f 9d be
       0.2468786 -0.123165265 0.16597965 -0.30761117
000010 b2 37 90 be 68 0d 0f bd fd cf 1c be 70 18 de bc
       -0.28167492 -0.034924895 -0.15313716 -0.027111262
000020 c6 9f 76 3e 0c bf 8a be 1a 21 73 3e 67 d5 8f be
       0.24084386 -0.27098882 0.23743096 -0.280925
000030 2c 90 bb 3d 92 21 65 3e c0 fa e9 3d 44 71 9d 3d
       0.09158358 0.22376087 0.1142478 0.07687619
000040 e6 93 fc bd 8e 8e 31 3e c4 4e e9 bd 53 2c af 3e
       -0.12332897 0.17339537 -0.113919765 0.34213504
000050 a2 3b 60 3e 2b 45 8f 3e 09 94 03 be 6e c2 29 be
       0.21897748 0.27982458 -0.1284944 -0.16578075
000060 f3 b8 a3 3e 74 61 f7 bd 81 85 5c be cd 6c 82 3e
       0.31977043 -0.120791346 -0.21535303 0.25473633
000070 44 4e 9c be f4 e6 ed 3d c6 f7 73 3e 93 43 a5 be
       -0.30528462 0.116163164 0.23824987 -0.32278118
000080 bc 4d dc bd c4 bb a7 bd fd 74 b0 3e 81 0a 29 be
       -0.10757014 -0.0819011 0.34464255 -0.16507913
000090 32 52 08 be a2 28 52 3e c8 9b 4c bd c0 ab 90 3c
       -0.13312605 0.20523313 -0.049953252 0.017660022
0000a0 72 cf 54 3e 6c 7c af bd 62 df 30 be 68 31 cf 3d
       0.20782259 -0.085686535 -0.17272714 0.10116845
0000b0 10 78 d8 3c 46 89 0e 3e ef 6d aa be d2 eb 26 be
       0.026424438 0.13919553 -0.33286998 -0.16300896
0000c0 50 7d 88 bd 4a e1 0b be 62 56 4e 3e 1b 83 04 be
       -0.066645265 -0.1366016 0.2015014 -0.12940638
0000d0 a2 0e fc bd 01 48 15 be 31 49 9d 3e 20 4a 0b 3c
       -0.123074785 -0.14578249 0.30719903 0.0085015595
0000e0 20 97 d7 3d b0 78 06 be ee 32 01 3e cf 05 1e be
       0.10526872 -0.13131976 0.12617084 -0.15431903
0000f0 3f 15 48 be b1 6a 4b be c8 72 66 be 8d 46 b2 3e
       -0.19539355 -0.19864918 -0.22504723 0.3481945
000100 ad c3 8b 3e b8 54 ec 3d ee 30 d5 bd 2e a8 56 3e
       0.27297726 0.11539596 -0.10409723 0.20962593
000110 f5 cc 97 be e2 87 53 be 10 12 bd 3d 00 46 70 3b
       -0.29648557 -0.20657304 0.09231961 0.0036662817
000120 7b 37 99 3e 43 6e a5 3e 3e 78 11 be c8 1c ed 3d
       0.2992514 0.32310686 -0.14206025 0.11577755
000130 25 53 91 3e 12 2c 59 be 5f fc 9f 3e c1 56 b4 3e
       0.28383747 -0.21208218 0.3124723 0.35222438
000140 10 17 1f 3d 5c dd e0 bd e4 fe c0 3d 22 0a 70 3e
       0.038840353 -0.10979721 0.094236165 0.23441365
000150 2f df 84 3e 53 e0 ae 3e 26 4c 24 3e eb b5 91 3e
       0.25951526 0.3415552 0.16044673 0.28459105
000160 8e f7 73 3e 80 b6 15 be 18 4a 96 be 30 9d dc 3d
       0.23824903 -0.146204 -0.29353404 0.10772169
000170 46 44 53 3e 7a d3 3a be c4 2d 8a 3d 08 ef 92 bd
       0.20631513 -0.18244734 0.0674701 -0.07174498
000180 c8 a3 74 be c5 f7 32 be 04 45 e9 3d bc b6 e9 bd
       -0.23890603 -0.17477329 0.11390117 -0.11411807
000190 72 42 5e 3e c0 02 e1 3c c6 09 6e 3e a1 db 90 3e
       0.21705034 0.027467132 0.23245916 0.28292564
0001a0 9c 26 96 3d e0 43 4a 3c 3a 62 6b 3e 00 f3 6b bc
       0.07331583 0.012345284 0.22986689 -0.014401197
0001b0 25 68 15 be 9e 5c 7d 3e 69 e5 af 3e e7 4e 58 be
       -0.14590509 0.24742362 0.34354714 -0.21123849
0001c0 d0 47 15 bd 30 c9 2c bd 36 64 b3 be 6d ae 87 3e
       -0.03644544 -0.042184055 -0.35037392 0.26500264
0001d0 be 5f 16 be ca 2e 69 3e 74 87 b3 be 5a 8f f7 bd
       -0.1468496 0.22771755 -0.3506428 -0.12087889
0001e0 00 f4 30 3a e0 84 f7 bd a2 a7 56 be 52 a0 de bd
       0.0006750226 -0.12085891 -0.20962384 -0.108704224
0001f0 a2 2b 29 3e 16 df 6c 3e a0 b3 ad bc 68 88 ca 3d
       0.16520551 0.23131976 -0.021203816 0.09889299
000200 58 bc 3a 3d 02 35 65 3e b0 1a 5a be 50 f2 9e 3c
       0.045589775 0.22383502 -0.21299243 0.019402653
000210 87 73 21 be 62 0d ac be 99 18 9f be 22 84 6c 3e
       -0.15766726 -0.3360396 -0.31073454 0.2309728
000220 3a 55 30 3e 56 8a 73 3e b4 88 70 be 4c ca 9c bd
       0.17220011 0.2378324 -0.23489648 -0.076557726
000230 00 91 16 bd 58 c2 78 3d 36 23 74 3e f4 01 33 be
       -0.036759377 0.060732216 0.23841557 -0.17481214
000240 b2 4a 47 3e d6 56 25 be 40 c3 c2 bb a0 ab ba bd
       0.19462088 -0.16146407 -0.005943686 -0.09114766
000250 3d e8 8b be 78 e4 0d 3d 80 b7 21 3b 1e c5 7b 3e
       -0.2732562 0.034641713 0.0024676025 0.24586913
000260 5d 51 a7 be 72 91 6a 3e 80 ef 72 bd df 83 36 be
       -0.32679263 0.22907045 -0.059310436 -0.17823742
000270 bc b1 ce 3d 50 6f e0 3d ae 61 84 be 76 09 10 3e
       0.10092494 0.10958731 -0.25855774 0.14066109
000280 c0 0d 4b be d8 c7 45 3d 2a d8 3a 3e 35 b5 5f be
       -0.19829464 0.04828629 0.18246523 -0.21846469
000290 66 d5 14 be 11 97 86 3e e2 ff 25 3e 7a 2c 25 3e
       -0.1453453 0.2628713 0.16210893 0.16130248
0002a0 00 a9 34 3c a9 9d a8 be 98 c4 21 3d f0 3b ef bc
       0.011026621 -0.32932785 0.039494127 -0.029203385
0002b0 a8 15 cf 3d a8 37 fe 3d 50 58 43 bd b7 33 93 3e
       0.101115525 0.12412959 -0.047691643 0.28750393
0002c0 dc 99 9d be a6 b9 01 3e 50 bf ed bd 30 72 41 be
       -0.30781448 0.12668476 -0.116087556 -0.18891215
0002d0 29 a6 af 3e ac 4a 89 bd 48 3e 88 3d bd 0f b4 3e
       0.34306458 -0.06703696 0.06652504 0.35168257
0002e0 9c ae f9 3d 17 1c 32 be f3 e3 36 be b4 7c a7 bd
       0.12191507 -0.17393528 -0.17860393 -0.08178082
0002f0 cf 3f 8c 3e 5a b7 78 be 9e 23 4e 3e 7e d7 86 be
       0.27392432 -0.24288693 0.20130774 -0.26336282
000300 28 40 84 be c4 7a 51 be 00 13 c1 3b d2 2c 65 3e
       -0.25830197 -0.20456988 0.0058921576 0.22380379
000310 e8 af 0b 3d 0b f6 8a 3e 40 e6 85 3c f2 c2 45 3e
       0.034103304 0.2714084 0.016345143 0.19312647
000320 08 5a 95 bd a0 f2 8e bc f6 e7 5b 3e 20 83 86 be
       -0.07292563 -0.017449677 0.21475205 -0.26271915
000330 ae 87 75 3e 37 9b 88 be 33 8a 56 be 76 75 1a 3e
       0.23977539 -0.2668092 -0.20951156 0.1508387
000340 80 b3 ff 3d 58 87 6a 3d b5 bd 99 be 42 1b 6a 3e
       0.12485409 0.05725798 -0.30027547 0.2286196
000350 50 32 a4 3d cb fe 0a be ce 46 59 3e 13 61 8b 3e
       0.08017409 -0.13573758 0.21218416 0.272225
000360 b0 10 65 bd 46 bd 32 3e f0 5f e5 3d 16 d7 96 be
       -0.055924118 0.17455015 0.11199939 -0.29460973
000370 a7 fe 25 be dd 6c 80 3e af 87 44 be a8 2f 72 bd
       -0.16210423 0.25083056 -0.19192384 -0.05912748
000380 5e 91 f1 bd c8 27 a3 3d 3f f2 60 be e0 32 38 be
       -0.11795305 0.07966572 -0.2196741 -0.17988157
000390 60 f2 1f 3c a4 18 e2 bd 18 ec b4 3d ba 46 2e be
       0.009762377 -0.11039856 0.08834094 -0.17019168
0003a0 20 10 12 3c 51 b0 a6 3e 24 7d 92 3d 42 7d a3 be
       0.008914977 0.32556394 0.07152775 -0.31931502
0003b0 51 88 46 be a8 1e 7e 3d 61 f8 af be 90 d2 14 bd
       -0.19387938 0.062040955 -0.34369186 -0.03633362
0003c0 9a f4 7c 3e 85 34 9f 3e 30 ca 7a be 4e fb 2f 3e
       0.24702683 0.31094757 -0.24491191 0.17185709
0003d0 1e 8f 48 3e 4a b7 5e 3e 2c 18 a6 bd 69 d7 9e 3e
       0.19585845 0.21749607 -0.08110079 0.3102372
0003e0 64 92 b4 3d 40 0a 3f bd cb 20 99 3e 7c 62 88 be
       0.08816984 -0.046640635 0.29907832 -0.26637638
0003f0 81 6b a4 3e 34 bd dc 3d f0 75 b7 bd 6e 13 71 be
       0.3211327 0.10778275 -0.08958042 -0.23542568
