model-integration/src/test/models/onnx/transformer/dummy_transformer.onnx (onnx, 27895 bytes, 25 tensors)

219 f4 [16, 48]
000000 68 c0 59 bd 2e c0 7c 3e 39 e6 25 be 91 55 95 3e
       -0.05316201 0.24682686 -0.16201104 0.29166844
000010 e4 2e 59 be 40 7f 49 3c 78 c1 69 be 1a 47 65 3e
       -0.21209294 0.012298405 -0.22827709 0.22390404
000020 60 b5 04 bc ea f6 17 3e 46 a7 69 3e 38 d6 42 3d
       -0.008099884 0.14840284 0.22817716 0.047567576
000030 50 ec ce bc 80 6e d6 bb 98 3d c5 bd 9c 02 6e be
       -0.025259167 -0.0065439343 -0.09630889 -0.23243183
000040 94 d8 9a be 20 0a 40 bc f0 39 b5 3d 9e 40 8f be
       -0.3024336 -0.011721164 0.08848941 -0.27978987
000050 50 e8 b4 3d 84 26 1c be 18 5f 5a bd 3e 83 70 3e
       0.088333726 -0.15249068 -0.053313345 0.23487565
000060 be ff a3 bd 5e 69 c4 bd 46 88 05 3e 50 f4 20 3e
       -0.08007763 -0.0959041 0.13040265 0.15718198
000070 90 e1 d3 3c 3e ea 1c 3e 92 01 28 3e f5 ab 8e 3e
       0.025864393 0.15323731 0.16406849 0.27865568
000080 68 c4 d0 3d 89 87 9b be 90 64 a1 bd 40 ea 36 3d
       0.101937115 -0.30376843 -0.07880509 0.044656992
000090 b8 ef 6c bd 6a 0f 80 be 12 8d 37 3e eb e9 1a be
       -0.0578458 -0.2501176 0.17924908 -0.15128295
0000a0 0c 55 2b 3e f4 9b 3e 3e 39 56 33 be 96 40 96 bd
       0.16731662 0.18614179 -0.1751336 -0.073365375
0000b0 61 58 1f be 36 0b 08 be 90 48 09 bd f8 9e 96 be
       -0.15561058 -0.13285527 -0.033516467 -0.2941816
0000c0 e8 42 9e 3d 3b 5f 95 be 05 ed 80 be 6b 0c 58 be
       0.07727605 -0.29174218 -0.25180832 -0.21098487
0000d0 ae 74 67 be 81 e8 7d be 07 80 4d be fa a9 61 3e
       -0.22603104 -0.24795724 -0.2006837 0.22037497
0000e0 e8 80 a0 bd ce 14 17 be c0 93 f4 3d d0 17 9a bc
       -0.07837087 -0.1475403 0.119422436 -0.018810183
0000f0 b0 f1 a8 3d 00 7a fd bc 2a 4e 79 3e da 3e e5 bd
       0.08249223 -0.030941963 0.24346223 -0.111936286
000100 0a 97 5d be 7a 29 a2 bd e4 f0 5a be a0 b0 38 bc
       -0.21639648 -0.07918067 -0.21380955 -0.011272579
000110 90 5d 07 be d0 4d 94 bc 5a 8b 4a 3e 3c e4 1b 3e
       -0.13219285 -0.01810351 0.19779721 0.15223783
000120 3e 06 97 be 85 63 82 3e 69 0e 8e 3e 33 4b 82 be
       -0.2949695 0.25466552 0.2774537 -0.25447997
000130 40 6c 00 bd c8 18 18 bd 7c 29 d1 bd c4 c6 c3 bd
       -0.031353235 -0.03713301 -0.10212991 -0.09559396
000140 f8 cb 7e 3d 4e 9c 7c 3e e8 5f 33 be 78 46 62 3d
       0.06220624 0.24669 -0.17517054 0.055242985
000150 2c 11 06 be ce 86 41 3e a0 bc a5 bd 4c 98 51 be
       -0.13092488 0.1889908 -0.08092618 -0.20468253
000160 e5 38 8f 3e 2e ec 55 be 90 15 35 3e 22 76 14 be
       0.27973095 -0.20890877 0.17684007 -0.14498189
000170 e1 65 96 be b9 21 8a 3e e5 a4 82 be 56 8d 2a 3e
       -0.29374602 0.26978853 -0.2551643 0.16655478
000180 30 f3 32 3e 20 c0 2a 3e d8 c0 33 3e 63 c2 09 be
       0.17475581 0.16674852 0.17554033 -0.13453059
000190 f4 ae ce bd 00 b9 34 3e c9 69 29 be 98 13 1a 3d
       -0.100919634 0.17648697 -0.1654426 0.037616342
0001a0 c8 55 c1 3d 3a 10 44 be 02 40 04 3e 08 bc 1a 3e
       0.094401896 -0.19146815 0.12915042 0.1511079
0001b0 f0 ec a9 3d 20 25 b5 bc d0 65 94 bc fc 07 0f 3e
       0.08297145 -0.02211243 -0.018114954 0.1396789
0001c0 1c e5 85 bd ce 08 6b 3e 40 e1 2d 3e 9a de 73 3e
       -0.0653784 0.22952577 0.16980457 0.23815385
0001d0 b0 be f3 3c ae 8f 4d 3e f8 0a 64 be ea eb 80 be
       0.029754013 0.2007434 -0.22269809 -0.25179988
0001e0 24 2b 9a bd 70 f6 e5 3c 09 25 9c 3e 0c d2 44 be
       -0.0752776 0.028071612 0.30497006 -0.19220752
0001f0 41 8c 97 3e 9e bf 5a 3e b3 41 8b be 0e 33 71 be
       0.29599193 0.21362159 -0.27198562 -0.23554632
000200 6f d8 92 3e b0 0a d1 3c 2c 8c 08 3e 97 cd 6a be
       0.2868075 0.025517792 0.13334721 -0.22929989
000210 3d f9 82 3e b0 8b a3 3c 09 b4 87 3e 04 1b d7 3d
       0.2558078 0.01996407 0.26504543 0.105032
000220 80 13 9b 3d ac f6 36 3e 88 e5 cc 3d 80 ca b4 bb
       0.07572079 0.17867535 0.10004717 -0.005517304
000230 1e 5c 19 be de 94 68 be 00 8e 02 bb c7 d6 9b 3e
       -0.14976546 -0.22713038 -0.0019921064 0.304373
000240 90 6d e5 bc 4a 7e 72 be 10 bc 5f bd e6 43 45 3e
       -0.028006345 -0.23680988 -0.05462271 0.19264182
000250 b0 c6 33 bd 0c d5 9b 3d c6 d9 57 3e 32 90 19 3e
       -0.043890655 0.07608995 0.21079168 0.14996412
000260 21 92 9a 3e 38 2e 6a 3d 10 13 84 3c c2 62 01 3e
       0.30189613 0.057172984 0.016122371 0.1263533
000270 9a be 65 3e 62 71 90 bd 41 c5 7e be d0 18 26 bd
       0.2243599 -0.07052876 -0.24879934 -0.040551007
000280 38 4e f9 3d 5f 2a 64 be 70 1a ed 3d f0 bb 33 3d
       0.12173122 -0.22281788 0.11577308 0.043880403
000290 43 b1 8b 3e 70 38 cf bc 8a 28 ce bd 18 92 fa bd
       0.27283677 -0.025295466 -0.10066326 -0.122348964
0002a0 79 53 0d be c0 68 cd bd 00 e8 2d b9 72 de bc bd
       -0.13801374 -0.10029745 -0.00016584992 -0.092221156
0002b0 49 cb 80 be 09 44 50 be be 59 49 3e 4a 1b 69 3e
       -0.25155094 -0.20338453 0.1966314 0.22764316
0002c0 0a f0 a8 bd e0 9f 2a 3c 36 89 9e bd 00 a0 25 be
       -0.08248909 0.010414094 -0.07741015 -0.16174316
0002d0 cc e0 be bd b4 54 32 be 12 50 85 bd a4 33 a8 3d
       -0.0932022 -0.17415124 -0.06509413 0.08212975
0002e0 c6 5c 54 be 80 05 65 3c 18 c0 b3 3d 8e 35 8c be
       -0.20738515 0.013978362 0.08776873 -0.2738461
0002f0 f0 e4 6c be 84 95 94 bd a2 27 98 be 58 7c f4 3d
       -0.23134208 -0.0725508 -0.29717737 0.11937779
000300 70 9f 47 be f0 15 40 3e 6e d1 ee bd b0 48 3c 3e
       -0.19494414 0.18758368 -0.11661039 0.18387103
000310 54 7f 4f be b6 41 61 3e 46 d2 7b 3e 2a d1 49 3e
       -0.20263416 0.21997723 0.24591932 0.19708696
000320 a0 1e 27 3e 24 c9 aa 3d b2 33 a4 bd 22 29 2a 3e
       0.16320276 0.08339146 -0.080176726 0.16617253
000330 89 9a 92 3e d2 17 8a be 2b 27 9b 3e 45 d8 3b be
       0.28633526 -0.26971298 0.3030332 -0.18344219
000340 42 a6 cf bd 66 40 20 3e 84 47 b5 bd 80 cf 78 bc
       -0.10139133 0.15649566 -0.08851531 -0.015186191
000350 9e 7b 7d be 9d 6f 93 3e e8 12 38 3e 71 c5 83 be
       -0.24754187 0.28796092 0.17975962 -0.25736573
000360 1e a9 62 3e 9e 22 62 3e 10 c6 f9 3d 9e 90 0f 3e
       0.22134826 0.22083518 0.121959805 0.14020011
000370 f8 df 07 3d c0 03 cb 3c 80 a6 9c 3d 51 cb 8b 3e
       0.033172578 0.024782062 0.07648945 0.27303556
000380 06 2d d1 bd 32 61 98 bd e1 6c 99 3e 95 5c 42 be
       -0.10213666 -0.074404135 0.2996588 -0.1898063
000390 f2 18 44 3e 15 c0 89 3e e7 c8 07 be e0 99 fb bc
       0.19150141 0.2690436 -0.13260232 -0.030713022
0003a0 85 6d 91 3e 03 9a 26 be 38 eb 02 3d 28 36 23 3e
       0.2840387 -0.16269688 0.031962603 0.15938628
0003b0 20 37 10 3c c6 da dd bd 53 56 95 3e 4e 2e 9b bd
       0.008802205 -0.10832743 0.29167423 -0.07577191
0003c0 ac 29 77 be 50 07 47 3d a8 32 2a bd f0 fd 65 3d
       -0.2413699 0.048590958 -0.041552216 0.056150377
0003d0 ec 7e c6 3d aa 5a 67 3e cc 37 6d be d8 0a 12 3d
       0.09692177 0.2259318 -0.23165816 0.035654873
0003e0 44 58 da bd 12 e3 3b be c0 3b a2 3b 09 43 81 3e
       -0.106613666 -0.18348339 0.0049509704 0.25246456
0003f0 57 a5 2c be d2 40 63 3e 00 10 81 be 56 ab 35 3e
       -0.16859947 0.22192696 -0.2520752 0.1774114

222 f4 [16, 16]
000000 38 ef 6a be f4 5e 12 be 90 69 01 bd 5e d8 0e 3e
       -0.22942817 -0.14294034 -0.031594813 0.13949725
000010 58 bb 68 3d d8 e5 76 bd 30 5c 81 bd 40 f9 69 be
       0.05681929 -0.06027779 -0.063164115 -0.22848988
000020 42 e9 1f 3e 96 13 45 3e 60 34 81 bc 86 a8 14 be
       0.15616325 0.19245753 -0.015772045 -0.14517412
000030 e6 02 28 3e fc c2 ea 3d cc 7e 58 3e 40 84 f2 bd
       0.16407356 0.114629716 0.21142119 -0.11841631
000040 dc e2 6f be 52 c0 76 3e 18 00 83 3d 48 44 80 bd
       -0.23426384 0.24096802 0.06396502 -0.062630236
000050 6e e1 36 3e 14 01 96 bd 48 85 84 bd 54 0f 30 be
       0.17859432 -0.073244244 -0.06470734 -0.17193347
000060 48 78 76 bd d0 51 f0 3c 44 5a da 3d 80 c5 f9 3c
       -0.060173303 0.029335886 0.10661748 0.030489683
000070 14 40 96 3d 6c 4a d1 3d 80 37 47 bc 78 14 5c 3d
       0.07336441 0.10219273 -0.012159228 0.053730458
000080 bc 14 1d 3e 82 65 22 be f0 6f 26 3e c8 5b 3c 3d
       0.15339941 -0.15859035 0.16253638 0.045985967
000090 f6 0e 38 be 14 1b 2b be 12 8f 1b be 1e 0e 27 3e
       -0.17974457 -0.16709548 -0.15191296 0.16313979
0000a0 00 58 6f 3b 86 55 4c 3e c4 67 37 3e 30 5c 00 3e
       0.0036520958 0.199545 0.17910677 0.12535167
0000b0 70 40 c6 3c 2c 1f f7 bd 20 7b 79 bc 30 ef 17 3e
       0.024200648 -0.120664924 -0.015227109 0.14837337
0000c0 7c 33 59 3e da 31 55 3e 0a 58 76 be 16 e7 55 be
       0.21211046 0.20819798 -0.24057022 -0.20888934
0000d0 84 45 a2 3d 40 2b 6d bd bc 1d b5 3d c8 59 63 3e
       0.07923415 -0.057902575 0.08843562 0.22202218
0000e0 88 07 00 3d 58 fc a3 bd a6 f2 5a be e0 8f 35 3c
       0.031257182 -0.08007115 -0.21381626 0.011081666
0000f0 66 dd 58 3e b0 65 fb 3c 7c 46 d0 bd e4 22 b6 3d
       0.21178207 0.030688137 -0.10169694 0.088933736
000100 46 ec 42 3e a0 17 91 3c 2c 4e 8a 3d a8 25 2d be
       0.19035444 0.01771146 0.06753191 -0.16908896
000110 c0 fb dc 3b ca 4f 36 3e 80 78 4a 3e 8a 5f 3e 3e
       0.006743878 0.17803875 0.1977253 0.18591133
000120 36 b5 50 3e ca 48 5a 3e 60 26 32 bc 30 05 2f 3d
       0.20381626 0.2131683 -0.010873407 0.042729557
000130 5c 86 fa 3d 38 07 42 3d e8 ae 38 be 7c e7 81 bd
       0.12232658 0.047370166 -0.18035471 -0.0634298
000140 18 31 33 be a8 89 4e be ac 2f 87 bd 98 68 85 bd
       -0.17499197 -0.20169699 -0.066008896 -0.0651409
000150 1c 77 2c 3e 2c 06 c4 bd 28 16 23 3d c0 6d 27 3e
       0.16842312 -0.0957149 0.03981605 0.1635046
000160 a0 2a fe bd 4c 8a 07 3e 98 2d f2 bd c0 e5 93 3b
       -0.12410474 0.1323635 -0.118251026 0.0045134723
000170 50 32 94 3c 9a d6 2d 3e 40 36 88 3c a0 7d cb 3d
       0.018090397 0.16976395 0.01662743 0.099360704
000180 a0 c3 13 bd 90 4a 54 be f8 11 b8 bd c8 4d 56 3d
       -0.036075234 -0.20731568 -0.08987802 0.05232027
000190 a8 7f be 3d 0a 6a 26 3e e0 02 bb bc 00 98 59 bb
       0.09301692 0.16251388 -0.02282852 -0.0033202171
0001a0 d4 df 98 bd 2c 8a 6d 3e 00 37 ee 3c 56 27 69 be
       -0.07464567 0.2319724 0.02907896 -0.22768912
0001b0 40 b4 a3 bd a4 13 7d 3e b4 a0 3c be dc 01 a1 3d
       -0.07993364 0.24714524 -0.18420678 0.07861683
0001c0 dc 45 f0 3d 5c c3 df 3d 22 f4 0d 3e 86 d5 00 3e
       0.117320746 0.10925934 0.1386266 0.12581453
0001d0 c0 a8 8c 3b a4 6b 1d be 10 f3 55 3d e8 86 2b be
       0.0042925775 -0.15373093 0.052233756 -0.16750681
0001e0 8e 58 7b be 80 c7 55 be 80 ff a6 bb f0 3f d4 bd
       -0.245455 -0.20876884 -0.005096376 -0.103637576
0001f0 c2 93 5f 3e 4c 51 15 3e b0 00 a3 bc 52 b4 75 be
       0.21833709 0.14581794 -0.019897789 -0.23994568
000200 f4 61 38 3e 60 5f fb 3c bc 0b 26 be cc 82 55 3e
       0.18006116 0.030685127 -0.16215414 0.20850676
000210 88 80 bc bd 10 66 e1 bc 88 6e 10 be ea 49 04 be
       -0.09204203 -0.027514488 -0.14104664 -0.12918821
000220 40 18 64 3c b8 d4 42 3e 4a a7 6a 3e 4c b7 47 be
       0.013921797 0.19026458 0.22915378 -0.19503516
000230 56 d1 1b be 84 22 85 bd 1e 25 0f be 30 02 88 bc
       -0.15216574 -0.06500724 -0.13979003 -0.016602606
000240 74 53 93 bd 48 f1 9e 3d ba 3b 76 be 74 5f ba bd
       -0.07193652 0.077608645 -0.24046221 -0.091002375
000250 88 b6 e9 3d 7e ff 6a be 7c 3b c7 bd 18 ee 0c be
       0.11411768 -0.22949025 -0.097281426 -0.137627
000260 bc 62 a6 3d 4c 0b 98 3d 40 54 29 be f0 b0 12 be
       0.08124301 0.0742403 -0.16536045 -0.14325309
000270 b4 00 9d bd ee cd 3f 3e 30 07 95 bd 40 7d 2c 3c
       -0.0766615 0.187309 -0.072767615 0.010527909
000280 58 c5 11 3e 6e dc 44 3e e4 c6 a1 bd ec fe 5f be
       0.14235437 0.19224712 -0.078992635 -0.21874589
000290 70 7c c1 bd ec bb 69 3e 48 30 9b 3d 80 b1 b6 3d
       -0.09447563 0.22825593 0.07577568 0.08920574
0002a0 66 43 4a 3e b0 43 6b 3d 04 87 8c 3d b6 22 67 3e
       0.19752273 0.0574376 0.0686169 0.22571835
0002b0 76 4e 5c be 2c 7b c0 3d 58 47 c6 3d 8c 6e 22 be
       -0.21514305 0.09398493 0.096815765 -0.15862483
0002c0 ac d7 d7 bd c0 eb ad bb 7c cb 07 be 5c 17 a4 bd
       -0.10539183 -0.0053076446 -0.13261217 -0.08012268
0002d0 d4 7d 81 bd a4 bc ab bd 1c 79 35 3e 04 bc 44 be
       -0.06322828 -0.0838559 0.17721981 -0.19212347
0002e0 3a cc 54 be c4 fb 83 bd 80 72 24 3c b0 dd 42 be
       -0.20781031 -0.06444505 0.010037065 -0.1902988
0002f0 da 15 39 3e ce e3 4a be ec 86 50 be 48 e7 3f be
       0.18074742 -0.19813463 -0.20363969 -0.1874057
000300 4a ce 0f be 02 09 3c be 86 d7 12 be 24 88 39 3e
       -0.14043537 -0.18362811 -0.14340028 0.1811834
000310 a0 04 60 be 94 aa e9 bd 5e 85 10 3e 90 7f a9 bc
       -0.21876764 -0.11409488 0.14113376 -0.02069071
000320 86 8e 38 be 64 23 13 3e 8e 88 5c be 8a 19 03 be
       -0.18023118 0.14368969 -0.21536466 -0.12802711
000330 18 9c 3c be 9c 76 98 bd 62 41 72 be c0 5b a4 3c
       -0.1841892 -0.07444498 -0.23657754 0.020063281
000340 4c 95 83 bd fc 0c 62 3e a6 63 43 3e dc 4c 60 3e
       -0.064249605 0.22075266 0.19080982 0.2190432
000350 5c 01 49 3e c6 bf 34 be aa d2 7d 3e b0 eb 9d bd
       0.19629425 -0.17651281 0.24787393 -0.077109694
000360 0e ad 23 be 38 ec 20 3e b6 07 7b 3e 58 6f 56 3e
       -0.15983984 0.1571511 0.2451466 0.20940912
000370 f0 24 04 be 60 5f a9 3d 58 90 37 3d be 8f 27 3e
       -0.12904716 0.082701445 0.04481539 0.16363427
000380 4c fe c5 3d 00 e8 fc bd e8 85 4c be d4 1a e7 3d
       0.09667644 -0.12348938 -0.19972956 0.11284414
000390 68 20 5f be 5c 8f 82 bd 24 0f cd bd f8 ba 08 bd
       -0.21789706 -0.06375 -0.100126535 -0.033381432
0003a0 38 31 72 3e 5c 19 c4 bd d8 7a f4 3d 06 01 48 be
       0.23651588 -0.095751494 0.11937493 -0.1953164
0003b0 50 75 3b 3d 5c 0c f1 bd 64 1e 81 3d 20 1e 7e be
       0.045766175 -0.117699355 0.06304625 -0.2481618
0003c0 46 63 31 be 50 ae 59 3d 02 5d 71 be 92 8d 6e 3e
       -0.17323026 0.053144753 -0.23570636 0.23296192
0003d0 c4 99 00 be 48 35 df bd c2 73 6f be 54 95 93 3d
       -0.12558657 -0.108988345 -0.23384002 0.072062165
0003e0 02 13 35 be a0 ef 20 3c 98 be 09 bd ac 4c 61 3e
       -0.17683032 0.009822756 -0.03362903 0.22001904
0003f0 0e eb 50 3e a8 06 4d 3d 00 fb 6c bc 70 62 d9 bc
       0.20402166 0.050055176 -0.01446414 -0.026536196

224 f4 [16, 32]
000000 d8 3f d4 bd dc 9e 2a be 10 88 39 be 2c cb fa 3d
       -0.1036374 -0.16662163 -0.1811831 0.12245783
000010 46 30 34 3e a2 35 53 be 10 cf 2b bd 54 46 1b 3e
       0.1759654 -0.20625928 -0.041945517 0.15163547
000020 6c 3b 93 3d d0 df f4 3c c0 5c 23 3e 7e bd 6c 3e
       0.07189068 0.029891878 0.1595335 0.2311916
000030 f8 58 e2 bd 68 94 39 3d 2e 47 37 be d6 db 41 be
       -0.11052126 0.045307547 -0.17898247 -0.18931517
000040 52 74 7f be 00 7e 1a be 74 6d 56 3e 40 50 28 bc
       -0.24946716 -0.15087128 0.2094019 -0.010273039
000050 20 3d d3 bc 86 bb 21 be 0a 51 3e be 30 d6 59 3e
       -0.025785983 -0.15794191 -0.18585601 0.21273112
000060 8e da 79 be e2 f2 13 3e c0 1d 4f bd e0 1a 7a bd
       -0.24399778 0.14448121 -0.05056548 -0.061060786
000070 70 26 9f bc c0 4f bf 3c a4 46 3d 3e d2 23 51 3e
       -0.019427508 0.023353457 0.18483979 0.2042382
000080 e8 4e 73 be 4c d0 74 3e a2 a9 12 be 80 8b 0a 3d
       -0.23760569 0.23907584 -0.14322522 0.033824444
000090 28 39 09 bd 00 41 82 3d 60 cd 98 3c c0 74 42 be
       -0.033501774 0.06360054 0.018652618 -0.18989849
0000a0 2c 75 2d 3e 3a 72 21 be 7a bb 75 3e 9a 5a 53 be
       0.16939229 -0.1576623 0.23997298 -0.2064003
0000b0 48 36 8c 3d 80 d3 6e bc c4 a4 6b 3e 2c dd 92 bd
       0.06846291 -0.014576793 0.23012072 -0.071710914
0000c0 80 90 fa 3c 14 19 34 be 2e 31 38 3e 80 06 f1 3b
       0.030586481 -0.17587692 0.1798751 0.007355511
0000d0 00 ed 23 3c d8 c9 01 be 80 5c 6d bc d4 c2 0a be
       0.010005236 -0.12674654 -0.014487386 -0.13550884
0000e0 9e 15 59 be 76 33 18 3e 18 85 2c bd 68 b6 75 3e
       -0.21199653 0.14863381 -0.042119116 0.23995364
0000f0 fa 45 75 3e 88 ba 64 3e 00 ed f0 bc fa 2e 3c 3e
       0.23952475 0.22336781 -0.029409885 0.18377295
000100 c0 0e ad bd f6 27 0d 3e 84 b9 5a 3e 48 f3 53 be
       -0.08450079 0.13784775 0.21359831 -0.20698273
000110 20 7e 76 bd f0 88 31 bd 60 eb 96 bd b2 0c 46 3e
       -0.060178876 -0.043343484 -0.07369113 0.1934078
000120 7a d5 7c be 0e 6c 39 3e 18 87 60 3e 6e 04 4b 3e
       -0.2469081 0.18107626 0.21926534 0.19825909
000130 0a bd 2f 3e a8 84 2c bd 2c 8c 58 3e d0 74 8b 3c
       0.17161956 -0.0421187 0.21147221 0.017023474
000140 60 fa f5 3c a0 57 a0 3d 6e f0 3b 3e 5c 9e 44 be
       0.030026615 0.07829213 0.18353435 -0.19201034
000150 44 a6 5c 3e 28 93 75 bd cc 95 2a be 90 53 87 3c
       0.215478 -0.059954792 -0.16658705 0.016519338
000160 c0 ce 99 3d 20 59 e5 3c e6 13 39 3e 7a d7 26 3e
       0.075101376 0.0279966 0.18073997 0.16293135
000170 14 b6 95 3d c6 ff 11 be 52 40 45 be 70 6d 81 3d
       0.07310119 -0.14257726 -0.19262818 0.06319702
000180 60 48 6c 3e 10 69 a3 bd b0 35 4a bd 30 ba d5 3c
       0.23074484 -0.079790235 -0.049367607 0.026089758
000190 30 a1 d6 3d 64 f9 fa bd bc d3 6c 3e 70 0c 3a 3d
       0.10479963 -0.12254599 0.23127645 0.045422018
0001a0 90 5b 0b bd f0 a7 61 3e ec a9 d9 3d 84 8a d6 3d
       -0.034022868 0.2203672 0.10628113 0.104756385
0001b0 58 55 0e 3e 30 09 dd 3d 42 77 13 be ca 73 1c be
       0.13899744 0.10792768 -0.14400962 -0.15278545
0001c0 c4 b0 d5 bd 70 5d e5 3c 88 e7 70 3e 28 10 6a 3d
       -0.10434106 0.027998656 0.23525822 0.057144314
0001d0 a4 38 46 3e d4 e0 ed 3d 74 79 cd bd f0 7b 1a bd
       0.19357544 0.11615148 -0.10032931 -0.037715852
0001e0 d8 99 50 bd aa dd 03 3e 30 9d ba 3d a4 22 57 be
       -0.050927967 0.12877527 0.091120124 -0.21009308
0001f0 48 64 f3 bd 30 ee 67 3e a0 4b 6a 3c 70 78 d7 3d
       -0.118843615 0.22649455 0.014300257 0.105210185
000200 80 03 e1 bc a0 72 ff 3c 40 e0 0a 3d ca c5 6a 3e
       -0.02746749 0.031182587 0.033905268 0.22927013
000210 50 14 43 3d 60 13 6a be 2a 9e 34 be 0c 86 56 be
       0.047626793 -0.22858953 -0.1763846 -0.20949572
000220 5a 5b 62 3e a0 6a 2c bc 08 75 8f 3d 94 57 70 3e
       0.2210516 -0.010523468 0.07004744 0.23470908
000230 74 79 f6 bd c0 42 57 3e b8 1c 49 bd 68 c0 36 3e
       -0.12034884 0.21021557 -0.049099654 0.17846835
000240 5a d5 56 3e 68 c6 4d 3d 7a 19 53 be a6 fc 47 3e
       0.20979825 0.050238043 -0.20615187 0.19529971
000250 c4 fb 1c 3e 0a 69 78 3e 00 43 f5 3c 70 2c 01 3d
       0.15330416 0.24258819 0.029939175 0.03153652
000260 10 20 38 3e e8 c0 f2 3d 7c 55 7e 3e 9e e1 53 be
       0.17980981 0.118532 0.24837297 -0.20691535
000270 2c 14 53 be 20 e5 57 3c 48 0e 1f bd 32 d2 0d be
       -0.20613164 0.013177186 -0.03883198 -0.13849714
000280 40 5d 22 3e 20 7d 62 3c d6 a3 33 3e 62 17 50 be
       0.15855885 0.013823777 0.17542967 -0.2032142
000290 98 50 1b be 90 06 2a be b2 7b 13 3e 5c 2d c4 3d
       -0.15167463 -0.16604066 0.14402655 0.09578964
0002a0 42 20 7d 3e 98 38 59 be c8 4d 96 bd 60 c5 05 bc
       0.24719337 -0.21212995 -0.07339054 -0.008164734
0002b0 72 74 79 3e 7e ea 5f be b4 8c ad bd 3e 4d 4d be
       0.24360827 -0.21866795 -0.084741026 -0.20048997
0002c0 00 98 77 3b 60 7d 03 3d 10 45 d2 bd 00 3e 5e 3a
       0.0037779808 0.03210199 -0.10267079 0.00084778666
0002d0 20 19 fc 3c dc fe 73 3e 28 5a 64 bd dc 44 d7 3d
       0.0307737 0.2382769 -0.055750042 0.10511181
0002e0 74 91 a2 3d 60 d1 e2 3d 70 63 81 bd 04 44 55 3e
       0.07937899 0.11075091 -0.06317794 0.20826727
0002f0 a8 b5 40 bd b4 53 ee 3d 5a 5c 3f 3e 50 8c fb 3c
       -0.04704824 0.11637059 0.18687573 0.030706555
000300 e8 86 d1 3d 00 2d ba bd 60 af 8f 3d 70 56 4a 3e
       0.102308095 -0.09090614 0.07015872 0.19759536
000310 48 9e a7 3d b0 a7 10 3e 36 1e 29 be c0 7d f0 3d
       0.08184487 0.14126468 -0.16515431 0.11742735
000320 fa 86 42 be 02 11 28 3e 70 3c 2b 3d 40 52 1a bc
       -0.18996802 0.16412738 0.041805685 -0.009419024
000330 a6 83 26 3e 20 79 e2 bc 88 71 49 3e 94 97 63 be
       0.16261157 -0.027645648 0.19672215 -0.22225791
000340 30 d0 a8 bc bc cc 0e 3e e0 fb 0f be ca 63 63 be
       -0.020607084 0.13945287 -0.14060926 -0.22206035
000350 ac 81 99 3d b6 f5 6c 3e 46 64 47 3e 80 a3 ee bb
       0.07495436 0.23140606 0.19471845 -0.0072826743
000360 82 6a 22 be c0 66 45 3c f0 28 cf bc 90 c2 fe bc
       -0.15860942 0.012048423 -0.025288075 -0.031098634
000370 1a 28 06 be d2 55 27 be d4 b8 dc bd 00 20 e1 3d
       -0.13101235 -0.16341332 -0.10777441 0.10992432
000380 d0 42 a2 3c b8 7e 0b 3e 98 95 eb bd b0 ff 06 be
       0.01980725 0.13622558 -0.11503142 -0.13183475
000390 f4 ad 50 3e 6a 92 7b be 68 a9 74 be 20 e4 41 bd
       0.20378858 -0.24567571 -0.23892748 -0.047336698
0003a0 8a de 66 be 80 75 fd 3d 12 78 07 3e 12 d9 21 3e
       -0.2254583 0.12375927 0.13229397 0.15805462
0003b0 60 31 1a 3e a0 8b 88 3d 98 af 5c bd c2 18 29 be
       0.15057898 0.06667256 -0.053878397 -0.1651335
0003c0 d4 11 a0 bd 0c 96 10 3e 70 d8 a1 3c 0c c3 21 3e
       -0.078159004 0.14119738 0.019756526 0.1579706
0003d0 00 00 4f b7 00 1a f6 bc a4 55 34 3e 78 c5 7e 3e
       -1.23381615e-05 -0.030041695 0.17610794 0.24880016
0003e0 14 56 4e be 50 77 68 bd c6 5c 13 be 6a 50 53 be
       -0.20150024 -0.05675441 -0.14390859 -0.20636144
0003f0 80 bc 57 3d b6 c3 3d 3e 80 c5 a4 bd ec e7 9c 3d
       0.052670002 0.18531689 -0.08045483 0.07661423

225 f4 [32, 16]
000000 5a f4 b2 3d ba cd 29 be b7 bd 1f be e0 18 00 bc
       0.087380126 -0.16582385 -0.15599714 -0.007818431
000010 61 6d 2d 3e c3 f0 13 3e 69 42 db bd b8 15 99 bc
       0.16936256 0.14447312 -0.10706026 -0.018687114
000020 c8 4c c5 bc a1 de 20 be 10 f2 0f bc 74 30 22 be
       -0.024084464 -0.15709926 -0.00878574 -0.15838796
000030 3a 34 e7 bd 5c 9c 03 be 00 7b 9b 3a 9c a0 5d 3d
       -0.11289258 -0.12852615 0.0011862218 0.054108247
000040 b6 29 29 be 00 d0 d3 b9 d0 10 dd 3c fc 32 19 be
       -0.16519818 -0.00040400028 0.026985556 -0.14960855
000050 1f 32 15 3e d3 44 34 3e 30 03 34 bd e8 16 6d bd
       0.14569901 0.1760438 -0.043948352 -0.057883173
000060 a0 97 af 3c 80 f2 06 3b ba bd 2b be bd 16 f6 bd
       0.021434605 0.0020591319 -0.16771594 -0.12016056
000070 f0 40 1f 3c 83 1c 2d 3e 04 09 1d bd de 94 25 be
       0.009720072 0.16905408 -0.038338676 -0.1617007
000080 00 9b 14 3d 6c 43 84 3d a1 bc 10 3e 1e 50 f6 3d
       0.036280632 0.06458172 0.14134456 0.12027
000090 78 a3 10 be 73 39 83 bd 40 2e 82 bc f2 f0 bb 3d
       -0.14124858 -0.06407442 -0.015891194 0.09176816
0000a0 cb c8 90 bd ad 63 32 3e 12 9d d4 3d a4 27 80 3d
       -0.07069548 0.17420836 0.10381521 0.06257561
0000b0 3e 94 8a 3d a4 6c 1f 3d 64 74 82 3d d6 9c 5d bd
       0.06766556 0.038921967 0.06369856 -0.05410465
0000c0 4d a5 ac bd 40 f1 85 3b c0 06 1a bb f6 3a c7 bd
       -0.08429966 0.004087597 -0.0023502558 -0.09728043
0000d0 20 8d 25 3c da 6f 8d 3d 57 30 30 be a6 b9 9c 3d
       0.010104448 0.069060996 -0.1720594 0.07652597
0000e0 50 2c 01 bd 54 bb 84 3d 51 ab 34 3e 87 4c 92 bd
       -0.0315364 0.064810425 0.17643477 -0.07143503
0000f0 bb 37 0e 3e 8b c8 13 be 27 86 12 3e 74 a6 13 3d
       0.13888447 -0.1443197 0.14308988 0.036047414
000100 e2 3d dd bd 9e a1 eb 3d 03 cb 02 3e 9b c9 d6 bd
       -0.10802819 0.115054354 0.12772755 -0.10487672
000110 96 c9 90 3d 62 ec 2e be d5 9a 06 be 1f 9f e3 bd
       0.070696995 -0.1708236 -0.13145001 -0.11114334
000120 80 cc 6e 3d a1 f5 d9 bd 3a 8d d0 3d 28 a7 2d 3d
       0.058300495 -0.10642553 0.10183187 0.04239574
000130 2e 92 d1 3d 0a d7 03 be e8 40 66 bd 38 17 c3 3c
       0.1023296 -0.12875 -0.056214243 0.023814783
000140 fa e4 9d 3d a3 a3 0a 3e 5c d1 47 3d c9 b6 27 3e
       0.077096894 0.13538985 0.048783645 0.16378321
000150 40 54 3c bb 06 8c ef bd 3a a4 d9 3d 16 ed fa 3d
       -0.002873674 -0.11696629 0.10627027 0.12252252
000160 68 90 fa bd ed c8 2a be a0 cd 51 bd 90 1c 4f 3c
       -0.122345746 -0.1667821 -0.05122149 0.012641087
000170 24 f3 66 bd 4a 1e ee 3d 3c 95 7e bd aa fe a5 bd
       -0.05638422 0.11626871 -0.06215404 -0.08105214
000180 8a d8 fb 3d 6c 99 66 3d e4 e3 1b bd f0 de 6f bc
       0.12297161 0.05629866 -0.03805913 -0.014640555
000190 cc 81 82 3d 20 ea bd bb 40 c4 51 3b f0 92 11 bc
       0.06372413 -0.005795732 0.0032007843 -0.00888513
0001a0 47 b3 13 3e 68 4c fb bd 46 2b 11 be 94 b8 4b bd
       0.14423858 -0.12270433 -0.14176664 -0.049736574
0001b0 36 32 ec bd 1a 45 fe bd 00 eb af 3a c2 c9 9a 3d
       -0.115330145 -0.12415524 0.0013421476 0.075580135
0001c0 bf 21 1f 3e 30 58 0b be 1e bc c3 3d f6 df ff 3d
       0.15540217 -0.1360786 0.09557365 0.12493889
0001d0 e4 2c 0c 3d 8a 25 28 be 52 91 72 bd 80 db 06 bb
       0.0342225 -0.1642057 -0.05922062 -0.002057761
0001e0 68 80 a1 bc 48 40 8a 3d 34 00 09 3d c0 7a 18 3d
       -0.01971455 0.06750542 0.03344746 0.03722644
0001f0 48 cc 2e be b6 43 aa 3d 5e d2 bd bd 78 aa f0 bd
       -0.17070115 0.08313696 -0.0926864 -0.11751264
000200 cd 67 f6 bd 5c 21 3b 3d e0 81 86 3c 65 56 10 be
       -0.12031517 0.04568611 0.016419351 -0.14095457
000210 f7 5b 22 3e c9 ca 04 3e b0 43 b4 bc 70 57 fd bd
       0.15855394 0.12967981 -0.022004932 -0.12370193
000220 fa ed ab 3d f8 88 34 bd 1b 3d 1e 3e f0 ef 7b 3c
       0.08395 -0.044075936 0.15452997 0.01537703
000230 f8 06 76 bd b0 d0 37 3c 2a 11 81 bd 43 94 06 3e
       -0.06006524 0.011219189 -0.06302102 0.13142495
000240 28 ee b5 3c 45 e3 02 be 04 32 12 3d 60 21 7a bc
       0.022208288 -0.12782009 0.03569223 -0.015266746
000250 89 38 d0 bd c6 a6 a4 3d 58 b9 2d 3d 32 5d f0 bd
       -0.10167033 0.08039622 0.042413086 -0.117365256
000260 e4 58 13 bd a0 7b de bb d0 c7 fd 3c 4b 76 d3 bd
       -0.035973445 -0.0067896396 0.030979067 -0.10325297
000270 33 40 04 3e f8 85 15 bd d2 27 d4 3d 34 62 3d bd
       0.12915115 -0.036504716 0.103591576 -0.046236232
000280 c9 13 ff bd 84 55 bd bd c6 8c cb 3d be 63 dc 3d
       -0.124549456 -0.092448264 0.0993896 0.10761212
000290 28 b9 5b 3d 40 69 6a bc 9f 6f 2d be a9 25 0f 3e
       0.053643376 -0.01430732 -0.16937111 0.1397921
0002a0 8a d5 65 bd 62 69 c8 3d 76 21 cc 3d ed 80 27 be
       -0.05611185 0.09785725 0.0996732 -0.16357775
0002b0 76 ee fc 3d 08 9c 49 bd 7a b4 c8 bd 33 4e 0f 3e
       0.1235017 -0.04922107 -0.09800048 0.13994674
0002c0 9d 6c 32 be 62 ca d3 bd 10 26 20 bc 5d d1 06 3e
       -0.17424245 -0.10341336 -0.0097747 0.13165803
0002d0 48 9c 94 3d 7d 77 cc bd dd 17 15 3e 18 7c a7 bd
       0.07256371 -0.09983728 0.14559884 -0.08177966
0002e0 10 c3 07 bc da e4 6d bd ba bf 23 be 00 d6 ea b9
       -0.008286253 -0.058079578 -0.15991107 -0.000447914
0002f0 34 78 09 bd 20 4e 38 bd 60 4b bc 3c 40 a3 14 bc
       -0.0335619 -0.04499638 0.02298516 -0.009072125
000300 d3 5e 31 be 63 24 1a 3e 8d cf eb bd 10 9c 59 bc
       -0.17321329 0.15052943 -0.115141965 -0.013281837
000310 a0 c2 2f be 30 67 67 3c b5 53 02 be 66 77 b7 3d
       -0.17164087 0.014123723 -0.12727244 0.0895832
000320 8b 8a 15 3e ee 24 cd 3d 18 a1 1e be d3 4e 32 be
       0.14603631 0.100168094 -0.1549114 -0.17412882
000330 e9 fb 2a be ca fe 54 bd a0 f0 22 3d 8e 57 d0 3d
       -0.16697659 -0.0520008 0.03978026 0.1017295
000340 9c 87 5b bd 12 af ac 3d 3a c6 fd 3d 12 89 80 bd
       -0.053596124 0.084318295 0.12391324 -0.06276144
000350 16 ab c4 3d f2 b0 c3 bd 00 20 89 bb 98 a2 0a be
       0.096029446 -0.09555234 -0.004184723 -0.13538587
000360 90 c6 f1 bc 20 78 37 3c 37 05 03 3e 12 df 1c be
       -0.029513627 0.011198074 0.12794958 -0.1531947
000370 c4 fe 56 3d 50 12 3b bc f4 7c 36 bd 20 e8 6d bd
       0.052489057 -0.01141794 -0.04455276 -0.0580827
000380 1f 0b 02 be 90 8d 51 bc 58 b0 02 bd 54 c2 a1 bd
       -0.12699555 -0.012790099 -0.031906456 -0.07898393
000390 82 04 15 be 35 5d 0a 3e 9c f6 1d be 76 ef c4 3d
       -0.14552501 0.13512118 -0.15426105 0.09615986
0003a0 b0 e4 fe 3c c2 90 70 bd 08 ce c8 bd 55 7b 23 3e
       0.031114906 -0.0587318 -0.09804922 0.15965016
0003b0 9a f4 c3 3d 0f ff 0f 3e bd 23 c4 bd 40 83 2f bc
       0.095681384 0.14062141 -0.09577129 -0.010712445
0003c0 a1 af 23 be 20 1a 2c bc c0 12 15 3d 4f 81 1f 3e
       -0.15984966 -0.010504276 0.036394835 0.15576671
0003d0 7f d3 0f 3e 54 29 11 bd 1c 20 86 3d e3 62 0b 3e
       0.14045523 -0.035439804 0.06549093 0.13611941
0003e0 94 7c 50 3d 56 6b 0c be b5 bb de bd 8d f5 01 3e
       0.050900057 -0.1371282 -0.10875646 0.12691326
0003f0 80 5d 82 ba bc dd 6d bd 7b 5b 06 3e 39 1c 01 3e
       -0.0009946078 -0.05807279 0.13120835 0.12608422

227 f4 [16, 48]
000000 68 c0 59 bd 2e c0 7c 3e 39 e6 25 be 91 55 95 3e
       -0.05316201 0.24682686 -0.16201104 0.29166844
000010 e4 2e 59 be 40 7f 49 3c 78 c1 69 be 1a 47 65 3e
       -0.21209294 0.012298405 -0.22827709 0.22390404
000020 60 b5 04 bc ea f6 17 3e 46 a7 69 3e 38 d6 42 3d
       -0.008099884 0.14840284 0.22817716 0.047567576
000030 50 ec ce bc 80 6e d6 bb 98 3d c5 bd 9c 02 6e be
       -0.025259167 -0.0065439343 -0.09630889 -0.23243183
000040 94 d8 9a be 20 0a 40 bc f0 39 b5 3d 9e 40 8f be
       -0.3024336 -0.011721164 0.08848941 -0.27978987
000050 50 e8 b4 3d 84 26 1c be 18 5f 5a bd 3e 83 70 3e
       0.088333726 -0.15249068 -0.053313345 0.23487565
000060 be ff a3 bd 5e 69 c4 bd 46 88 05 3e 50 f4 20 3e
       -0.08007763 -0.0959041 0.13040265 0.15718198
000070 90 e1 d3 3c 3e ea 1c 3e 92 01 28 3e f5 ab 8e 3e
       0.025864393 0.15323731 0.16406849 0.27865568
000080 68 c4 d0 3d 89 87 9b be 90 64 a1 bd 40 ea 36 3d
       0.101937115 -0.30376843 -0.07880509 0.044656992
000090 b8 ef 6c bd 6a 0f 80 be 12 8d 37 3e eb e9 1a be
       -0.0578458 -0.2501176 0.17924908 -0.15128295
0000a0 0c 55 2b 3e f4 9b 3e 3e 39 56 33 be 96 40 96 bd
       0.16731662 0.18614179 -0.1751336 -0.073365375
0000b0 61 58 1f be 36 0b 08 be 90 48 09 bd f8 9e 96 be
       -0.15561058 -0.13285527 -0.033516467 -0.2941816
0000c0 e8 42 9e 3d 3b 5f 95 be 05 ed 80 be 6b 0c 58 be
       0.07727605 -0.29174218 -0.25180832 -0.21098487
0000d0 ae 74 67 be 81 e8 7d be 07 80 4d be fa a9 61 3e
       -0.22603104 -0.24795724 -0.2006837 0.22037497
0000e0 e8 80 a0 bd ce 14 17 be c0 93 f4 3d d0 17 9a bc
       -0.07837087 -0.1475403 0.119422436 -0.018810183
0000f0 b0 f1 a8 3d 00 7a fd bc 2a 4e 79 3e da 3e e5 bd
       0.08249223 -0.030941963 0.24346223 -0.111936286
000100 0a 97 5d be 7a 29 a2 bd e4 f0 5a be a0 b0 38 bc
       -0.21639648 -0.07918067 -0.21380955 -0.011272579
000110 90 5d 07 be d0 4d 94 bc 5a 8b 4a 3e 3c e4 1b 3e
       -0.13219285 -0.01810351 0.19779721 0.15223783
000120 3e 06 97 be 85 63 82 3e 69 0e 8e 3e 33 4b 82 be
       -0.2949695 0.25466552 0.2774537 -0.25447997
000130 40 6c 00 bd c8 18 18 bd 7c 29 d1 bd c4 c6 c3 bd
       -0.031353235 -0.03713301 -0.10212991 -0.09559396
000140 f8 cb 7e 3d 4e 9c 7c 3e e8 5f 33 be 78 46 62 3d
       0.06220624 0.24669 -0.17517054 0.055242985
000150 2c 11 06 be ce 86 41 3e a0 bc a5 bd 4c 98 51 be
       -0.13092488 0.1889908 -0.08092618 -0.20468253
000160 e5 38 8f 3e 2e ec 55 be 90 15 35 3e 22 76 14 be
       0.27973095 -0.20890877 0.17684007 -0.14498189
000170 e1 65 96 be b9 21 8a 3e e5 a4 82 be 56 8d 2a 3e
       -0.29374602 0.26978853 -0.2551643 0.16655478
000180 30 f3 32 3e 20 c0 2a 3e d8 c0 33 3e 63 c2 09 be
       0.17475581 0.16674852 0.17554033 -0.13453059
000190 f4 ae ce bd 00 b9 34 3e c9 69 29 be 98 13 1a 3d
       -0.100919634 0.17648697 -0.1654426 0.037616342
0001a0 c8 55 c1 3d 3a 10 44 be 02 40 04 3e 08 bc 1a 3e
       0.094401896 -0.19146815 0.12915042 0.1511079
0001b0 f0 ec a9 3d 20 25 b5 bc d0 65 94 bc fc 07 0f 3e
       0.08297145 -0.02211243 -0.018114954 0.1396789
0001c0 1c e5 85 bd ce 08 6b 3e 40 e1 2d 3e 9a de 73 3e
       -0.0653784 0.22952577 0.16980457 0.23815385
0001d0 b0 be f3 3c ae 8f 4d 3e f8 0a 64 be ea eb 80 be
       0.029754013 0.2007434 -0.22269809 -0.25179988
0001e0 24 2b 9a bd 70 f6 e5 3c 09 25 9c 3e 0c d2 44 be
       -0.0752776 0.028071612 0.30497006 -0.19220752
0001f0 41 8c 97 3e 9e bf 5a 3e b3 41 8b be 0e 33 71 be
       0.29599193 0.21362159 -0.27198562 -0.23554632
000200 6f d8 92 3e b0 0a d1 3c 2c 8c 08 3e 97 cd 6a be
       0.2868075 0.025517792 0.13334721 -0.22929989
000210 3d f9 82 3e b0 8b a3 3c 09 b4 87 3e 04 1b d7 3d
       0.2558078 0.01996407 0.26504543 0.105032
000220 80 13 9b 3d ac f6 36 3e 88 e5 cc 3d 80 ca b4 bb
       0.07572079 0.17867535 0.10004717 -0.005517304
000230 1e 5c 19 be de 94 68 be 00 8e 02 bb c7 d6 9b 3e
       -0.14976546 -0.22713038 -0.0019921064 0.304373
000240 90 6d e5 bc 4a 7e 72 be 10 bc 5f bd e6 43 45 3e
       -0.028006345 -0.23680988 -0.05462271 0.19264182
000250 b0 c6 33 bd 0c d5 9b 3d c6 d9 57 3e 32 90 19 3e
       -0.043890655 0.07608995 0.21079168 0.14996412
000260 21 92 9a 3e 38 2e 6a 3d 10 13 84 3c c2 62 01 3e
       0.30189613 0.057172984 0.016122371 0.1263533
000270 9a be 65 3e 62 71 90 bd 41 c5 7e be d0 18 26 bd
       0.2243599 -0.07052876 -0.24879934 -0.040551007
000280 38 4e f9 3d 5f 2a 64 be 70 1a ed 3d f0 bb 33 3d
       0.12173122 -0.22281788 0.11577308 0.043880403
000290 43 b1 8b 3e 70 38 cf bc 8a 28 ce bd 18 92 fa bd
       0.27283677 -0.025295466 -0.10066326 -0.122348964
0002a0 79 53 0d be c0 68 cd bd 00 e8 2d b9 72 de bc bd
       -0.13801374 -0.10029745 -0.00016584992 -0.092221156
0002b0 49 cb 80 be 09 44 50 be be 59 49 3e 4a 1b 69 3e
       -0.25155094 -0.20338453 0.1966314 0.22764316
0002c0 0a f0 a8 bd e0 9f 2a 3c 36 89 9e bd 00 a0 25 be
       -0.08248909 0.010414094 -0.07741015 -0.16174316
0002d0 cc e0 be bd b4 54 32 be 12 50 85 bd a4 33 a8 3d
       -0.0932022 -0.17415124 -0.06509413 0.08212975
0002e0 c6 5c 54 be 80 05 65 3c 18 c0 b3 3d 8e 35 8c be
       -0.20738515 0.013978362 0.08776873 -0.2738461
0002f0 f0 e4 6c be 84 95 94 bd a2 27 98 be 58 7c f4 3d
       -0.23134208 -0.0725508 -0.29717737 0.11937779
000300 70 9f 47 be f0 15 40 3e 6e d1 ee bd b0 48 3c 3e
       -0.19494414 0.18758368 -0.11661039 0.18387103
000310 54 7f 4f be b6 41 61 3e 46 d2 7b 3e 2a d1 49 3e
       -0.20263416 0.21997723 0.24591932 0.19708696
000320 a0 1e 27 3e 24 c9 aa 3d b2 33 a4 bd 22 29 2a 3e
       0.16320276 0.08339146 -0.080176726 0.16617253
000330 89 9a 92 3e d2 17 8a be 2b 27 9b 3e 45 d8 3b be
       0.28633526 -0.26971298 0.3030332 -0.18344219
000340 42 a6 cf bd 66 40 20 3e 84 47 b5 bd 80 cf 78 bc
       -0.10139133 0.15649566 -0.08851531 -0.015186191
000350 9e 7b 7d be 9d 6f 93 3e e8 12 38 3e 71 c5 83 be
       -0.24754187 0.28796092 0.17975962 -0.25736573
000360 1e a9 62 3e 9e 22 62 3e 10 c6 f9 3d 9e 90 0f 3e
       0.22134826 0.22083518 0.121959805 0.14020011
000370 f8 df 07 3d c0 03 cb 3c 80 a6 9c 3d 51 cb 8b 3e
       0.033172578 0.024782062 0.07648945 0.27303556
000380 06 2d d1 bd 32 61 98 bd e1 6c 99 3e 95 5c 42 be
       -0.10213666 -0.074404135 0.2996588 -0.1898063
000390 f2 18 44 3e 15 c0 89 3e e7 c8 07 be e0 99 fb bc
       0.19150141 0.2690436 -0.13260232 -0.030713022
0003a0 85 6d 91 3e 03 9a 26 be 38 eb 02 3d 28 36 23 3e
       0.2840387 -0.16269688 0.031962603 0.15938628
0003b0 20 37 10 3c c6 da dd bd 53 56 95 3e 4e 2e 9b bd
       0.008802205 -0.10832743 0.29167423 -0.07577191
0003c0 ac 29 77 be 50 07 47 3d a8 32 2a bd f0 fd 65 3d
       -0.2413699 0.048590958 -0.041552216 0.056150377
0003d0 ec 7e c6 3d aa 5a 67 3e cc 37 6d be d8 0a 12 3d
       0.09692177 0.2259318 -0.23165816 0.035654873
0003e0 44 58 da bd 12 e3 3b be c0 3b a2 3b 09 43 81 3e
       -0.106613666 -0.18348339 0.0049509704 0.25246456
0003f0 57 a5 2c be d2 40 63 3e 00 10 81 be 56 ab 35 3e
       -0.16859947 0.22192696 -0.2520752 0.1774114

230 f4 [16, 16]
000000 38 ef 6a be f4 5e 12 be 90 69 01 bd 5e d8 0e 3e
       -0.22942817 -0.14294034 -0.031594813 0.13949725
000010 58 bb 68 3d d8 e5 76 bd 30 5c 81 bd 40 f9 69 be
       0.05681929 -0.06027779 -0.063164115 -0.22848988
000020 42 e9 1f 3e 96 13 45 3e 60 34 81 bc 86 a8 14 be
       0.15616325 0.19245753 -0.015772045 -0.14517412
000030 e6 02 28 3e fc c2 ea 3d cc 7e 58 3e 40 84 f2 bd
       0.16407356 0.114629716 0.21142119 -0.11841631
000040 dc e2 6f be 52 c0 76 3e 18 00 83 3d 48 44 80 bd
       -0.23426384 0.24096802 0.06396502 -0.062630236
000050 6e e1 36 3e 14 01 96 bd 48 85 84 bd 54 0f 30 be
       0.17859432 -0.073244244 -0.06470734 -0.17193347
000060 48 78 76 bd d0 51 f0 3c 44 5a da 3d 80 c5 f9 3c
       -0.060173303 0.029335886 0.10661748 0.030489683
000070 14 40 96 3d 6c 4a d1 3d 80 37 47 bc 78 14 5c 3d
       0.07336441 0.10219273 -0.012159228 0.053730458
000080 bc 14 1d 3e 82 65 22 be f0 6f 26 3e c8 5b 3c 3d
       0.15339941 -0.15859035 0.16253638 0.045985967
000090 f6 0e 38 be 14 1b 2b be 12 8f 1b be 1e 0e 27 3e
       -0.17974457 -0.16709548 -0.15191296 0.16313979
0000a0 00 58 6f 3b 86 55 4c 3e c4 67 37 3e 30 5c 00 3e
       0.0036520958 0.199545 0.17910677 0.12535167
0000b0 70 40 c6 3c 2c 1f f7 bd 20 7b 79 bc 30 ef 17 3e
       0.024200648 -0.120664924 -0.015227109 0.14837337
0000c0 7c 33 59 3e da 31 55 3e 0a 58 76 be 16 e7 55 be
       0.21211046 0.20819798 -0.24057022 -0.20888934
0000d0 84 45 a2 3d 40 2b 6d bd bc 1d b5 3d c8 59 63 3e
       0.07923415 -0.057902575 0.08843562 0.22202218
0000e0 88 07 00 3d 58 fc a3 bd a6 f2 5a be e0 8f 35 3c
       0.031257182 -0.08007115 -0.21381626 0.011081666
0000f0 66 dd 58 3e b0 65 fb 3c 7c 46 d0 bd e4 22 b6 3d
       0.21178207 0.030688137 -0.10169694 0.088933736
000100 46 ec 42 3e a0 17 91 3c 2c 4e 8a 3d a8 25 2d be
       0.19035444 0.01771146 0.06753191 -0.16908896
000110 c0 fb dc 3b ca 4f 36 3e 80 78 4a 3e 8a 5f 3e 3e
       0.006743878 0.17803875 0.1977253 0.18591133
000120 36 b5 50 3e ca 48 5a 3e 60 26 32 bc 30 05 2f 3d
       0.20381626 0.2131683 -0.010873407 0.042729557
000130 5c 86 fa 3d 38 07 42 3d e8 ae 38 be 7c e7 81 bd
       0.12232658 0.047370166 -0.18035471 -0.0634298
000140 18 31 33 be a8 89 4e be ac 2f 87 bd 98 68 85 bd
       -0.17499197 -0.20169699 -0.066008896 -0.0651409
000150 1c 77 2c 3e 2c 06 c4 bd 28 16 23 3d c0 6d 27 3e
       0.16842312 -0.0957149 0.03981605 0.1635046
000160 a0 2a fe bd 4c 8a 07 3e 98 2d f2 bd c0 e5 93 3b
       -0.12410474 0.1323635 -0.118251026 0.0045134723
000170 50 32 94 3c 9a d6 2d 3e 40 36 88 3c a0 7d cb 3d
       0.018090397 0.16976395 0.01662743 0.099360704
000180 a0 c3 13 bd 90 4a 54 be f8 11 b8 bd c8 4d 56 3d
       -0.036075234 -0.20731568 -0.08987802 0.05232027
000190 a8 7f be 3d 0a 6a 26 3e e0 02 bb bc 00 98 59 bb
       0.09301692 0.16251388 -0.02282852 -0.0033202171
0001a0 d4 df 98 bd 2c 8a 6d 3e 00 37 ee 3c 56 27 69 be
       -0.07464567 0.2319724 0.02907896 -0.22768912
0001b0 40 b4 a3 bd a4 13 7d 3e b4 a0 3c be dc 01 a1 3d
       -0.07993364 0.24714524 -0.18420678 0.07861683
0001c0 dc 45 f0 3d 5c c3 df 3d 22 f4 0d 3e 86 d5 00 3e
       0.117320746 0.10925934 0.1386266 0.12581453
0001d0 c0 a8 8c 3b a4 6b 1d be 10 f3 55 3d e8 86 2b be
       0.0042925775 -0.15373093 0.052233756 -0.16750681
0001e0 8e 58 7b be 80 c7 55 be 80 ff a6 bb f0 3f d4 bd
       -0.245455 -0.20876884 -0.005096376 -0.103637576
0001f0 c2 93 5f 3e 4c 51 15 3e b0 00 a3 bc 52 b4 75 be
       0.21833709 0.14581794 -0.019897789 -0.23994568
000200 f4 61 38 3e 60 5f fb 3c bc 0b 26 be cc 82 55 3e
       0.18006116 0.030685127 -0.16215414 0.20850676
000210 88 80 bc bd 10 66 e1 bc 88 6e 10 be ea 49 04 be
       -0.09204203 -0.027514488 -0.14104664 -0.12918821
000220 40 18 64 3c b8 d4 42 3e 4a a7 6a 3e 4c b7 47 be
       0.013921797 0.19026458 0.22915378 -0.19503516
000230 56 d1 1b be 84 22 85 bd 1e 25 0f be 30 02 88 bc
       -0.15216574 -0.06500724 -0.13979003 -0.016602606
000240 74 53 93 bd 48 f1 9e 3d ba 3b 76 be 74 5f ba bd
       -0.07193652 0.077608645 -0.24046221 -0.091002375
000250 88 b6 e9 3d 7e ff 6a be 7c 3b c7 bd 18 ee 0c be
       0.11411768 -0.22949025 -0.097281426 -0.137627
000260 bc 62 a6 3d 4c 0b 98 3d 40 54 29 be f0 b0 12 be
       0.08124301 0.0742403 -0.16536045 -0.14325309
000270 b4 00 9d bd ee cd 3f 3e 30 07 95 bd 40 7d 2c 3c
       -0.0766615 0.187309 -0.072767615 0.010527909
000280 58 c5 11 3e 6e dc 44 3e e4 c6 a1 bd ec fe 5f be
       0.14235437 0.19224712 -0.078992635 -0.21874589
000290 70 7c c1 bd ec bb 69 3e 48 30 9b 3d 80 b1 b6 3d
       -0.09447563 0.22825593 0.07577568 0.08920574
0002a0 66 43 4a 3e b0 43 6b 3d 04 87 8c 3d b6 22 67 3e
       0.19752273 0.0574376 0.0686169 0.22571835
0002b0 76 4e 5c be 2c 7b c0 3d 58 47 c6 3d 8c 6e 22 be
       -0.21514305 0.09398493 0.096815765 -0.15862483
0002c0 ac d7 d7 bd c0 eb ad bb 7c cb 07 be 5c 17 a4 bd
       -0.10539183 -0.0053076446 -0.13261217 -0.08012268
0002d0 d4 7d 81 bd a4 bc ab bd 1c 79 35 3e 04 bc 44 be
       -0.06322828 -0.0838559 0.17721981 -0.19212347
0002e0 3a cc 54 be c4 fb 83 bd 80 72 24 3c b0 dd 42 be
       -0.20781031 -0.06444505 0.010037065 -0.1902988
0002f0 da 15 39 3e ce e3 4a be ec 86 50 be 48 e7 3f be
       0.18074742 -0.19813463 -0.20363969 -0.1874057
000300 4a ce 0f be 02 09 3c be 86 d7 12 be 24 88 39 3e
       -0.14043537 -0.18362811 -0.14340028 0.1811834
000310 a0 04 60 be 94 aa e9 bd 5e 85 10 3e 90 7f a9 bc
       -0.21876764 -0.11409488 0.14113376 -0.02069071
000320 86 8e 38 be 64 23 13 3e 8e 88 5c be 8a 19 03 be
       -0.18023118 0.14368969 -0.21536466 -0.12802711
000330 18 9c 3c be 9c 76 98 bd 62 41 72 be c0 5b a4 3c
       -0.1841892 -0.07444498 -0.23657754 0.020063281
000340 4c 95 83 bd fc 0c 62 3e a6 63 43 3e dc 4c 60 3e
       -0.064249605 0.22075266 0.19080982 0.2190432
000350 5c 01 49 3e c6 bf 34 be aa d2 7d 3e b0 eb 9d bd
       0.19629425 -0.17651281 0.24787393 -0.077109694
000360 0e ad 23 be 38 ec 20 3e b6 07 7b 3e 58 6f 56 3e
       -0.15983984 0.1571511 0.2451466 0.20940912
000370 f0 24 04 be 60 5f a9 3d 58 90 37 3d be 8f 27 3e
       -0.12904716 0.082701445 0.04481539 0.16363427
000380 4c fe c5 3d 00 e8 fc bd e8 85 4c be d4 1a e7 3d
       0.09667644 -0.12348938 -0.19972956 0.11284414
000390 68 20 5f be 5c 8f 82 bd 24 0f cd bd f8 ba 08 bd
       -0.21789706 -0.06375 -0.100126535 -0.033381432
0003a0 38 31 72 3e 5c 19 c4 bd d8 7a f4 3d 06 01 48 be
       0.23651588 -0.095751494 0.11937493 -0.1953164
0003b0 50 75 3b 3d 5c 0c f1 bd 64 1e 81 3d 20 1e 7e be
       0.045766175 -0.117699355 0.06304625 -0.2481618
0003c0 46 63 31 be 50 ae 59 3d 02 5d 71 be 92 8d 6e 3e
       -0.17323026 0.053144753 -0.23570636 0.23296192
0003d0 c4 99 00 be 48 35 df bd c2 73 6f be 54 95 93 3d
       -0.12558657 -0.108988345 -0.23384002 0.072062165
0003e0 02 13 35 be a0 ef 20 3c 98 be 09 bd ac 4c 61 3e
       -0.17683032 0.009822756 -0.03362903 0.22001904
0003f0 0e eb 50 3e a8 06 4d 3d 00 fb 6c bc 70 62 d9 bc
       0.20402166 0.050055176 -0.01446414 -0.026536196

232 f4 [16, 32]
000000 d8 3f d4 bd dc 9e 2a be 10 88 39 be 2c cb fa 3d
       -0.1036374 -0.16662163 -0.1811831 0.12245783
000010 46 30 34 3e a2 35 53 be 10 cf 2b bd 54 46 1b 3e
       0.1759654 -0.20625928 -0.041945517 0.15163547
000020 6c 3b 93 3d d0 df f4 3c c0 5c 23 3e 7e bd 6c 3e
       0.07189068 0.029891878 0.1595335 0.2311916
000030 f8 58 e2 bd 68 94 39 3d 2e 47 37 be d6 db 41 be
       -0.11052126 0.045307547 -0.17898247 -0.18931517
000040 52 74 7f be 00 7e 1a be 74 6d 56 3e 40 50 28 bc
       -0.24946716 -0.15087128 0.2094019 -0.010273039
000050 20 3d d3 bc 86 bb 21 be 0a 51 3e be 30 d6 59 3e
       -0.025785983 -0.15794191 -0.18585601 0.21273112
000060 8e da 79 be e2 f2 13 3e c0 1d 4f bd e0 1a 7a bd
       -0.24399778 0.14448121 -0.05056548 -0.061060786
000070 70 26 9f bc c0 4f bf 3c a4 46 3d 3e d2 23 51 3e
       -0.019427508 0.023353457 0.18483979 0.2042382
000080 e8 4e 73 be 4c d0 74 3e a2 a9 12 be 80 8b 0a 3d
       -0.23760569 0.23907584 -0.14322522 0.033824444
000090 28 39 09 bd 00 41 82 3d 60 cd 98 3c c0 74 42 be
       -0.033501774 0.06360054 0.018652618 -0.18989849
0000a0 2c 75 2d 3e 3a 72 21 be 7a bb 75 3e 9a 5a 53 be
       0.16939229 -0.1576623 0.23997298 -0.2064003
0000b0 48 36 8c 3d 80 d3 6e bc c4 a4 6b 3e 2c dd 92 bd
       0.06846291 -0.014576793 0.23012072 -0.071710914
0000c0 80 90 fa 3c 14 19 34 be 2e 31 38 3e 80 06 f1 3b
       0.030586481 -0.17587692 0.1798751 0.007355511
0000d0 00 ed 23 3c d8 c9 01 be 80 5c 6d bc d4 c2 0a be
       0.010005236 -0.12674654 -0.014487386 -0.13550884
0000e0 9e 15 59 be 76 33 18 3e 18 85 2c bd 68 b6 75 3e
       -0.21199653 0.14863381 -0.042119116 0.23995364
0000f0 fa 45 75 3e 88 ba 64 3e 00 ed f0 bc fa 2e 3c 3e
       0.23952475 0.22336781 -0.029409885 0.18377295
000100 c0 0e ad bd f6 27 0d 3e 84 b9 5a 3e 48 f3 53 be
       -0.08450079 0.13784775 0.21359831 -0.20698273
000110 20 7e 76 bd f0 88 31 bd 60 eb 96 bd b2 0c 46 3e
       -0.060178876 -0.043343484 -0.07369113 0.1934078
000120 7a d5 7c be 0e 6c 39 3e 18 87 60 3e 6e 04 4b 3e
       -0.2469081 0.18107626 0.21926534 0.19825909
000130 0a bd 2f 3e a8 84 2c bd 2c 8c 58 3e d0 74 8b 3c
       0.17161956 -0.0421187 0.21147221 0.017023474
000140 60 fa f5 3c a0 57 a0 3d 6e f0 3b 3e 5c 9e 44 be
       0.030026615 0.07829213 0.18353435 -0.19201034
000150 44 a6 5c 3e 28 93 75 bd cc 95 2a be 90 53 87 3c
       0.215478 -0.059954792 -0.16658705 0.016519338
000160 c0 ce 99 3d 20 59 e5 3c e6 13 39 3e 7a d7 26 3e
       0.075101376 0.0279966 0.18073997 0.16293135
000170 14 b6 95 3d c6 ff 11 be 52 40 45 be 70 6d 81 3d
       0.07310119 -0.14257726 -0.19262818 0.06319702
000180 60 48 6c 3e 10 69 a3 bd b0 35 4a bd 30 ba d5 3c
       0.23074484 -0.079790235 -0.049367607 0.026089758
000190 30 a1 d6 3d 64 f9 fa bd bc d3 6c 3e 70 0c 3a 3d
       0.10479963 -0.12254599 0.23127645 0.045422018
0001a0 90 5b 0b bd f0 a7 61 3e ec a9 d9 3d 84 8a d6 3d
       -0.034022868 0.2203672 0.10628113 0.104756385
0001b0 58 55 0e 3e 30 09 dd 3d 42 77 13 be ca 73 1c be
       0.13899744 0.10792768 -0.14400962 -0.15278545
0001c0 c4 b0 d5 bd 70 5d e5 3c 88 e7 70 3e 28 10 6a 3d
       -0.10434106 0.027998656 0.23525822 0.057144314
0001d0 a4 38 46 3e d4 e0 ed 3d 74 79 cd bd f0 7b 1a bd
       0.19357544 0.11615148 -0.10032931 -0.037715852
0001e0 d8 99 50 bd aa dd 03 3e 30 9d ba 3d a4 22 57 be
       -0.050927967 0.12877527 0.091120124 -0.21009308
0001f0 48 64 f3 bd 30 ee 67 3e a0 4b 6a 3c 70 78 d7 3d
       -0.118843615 0.22649455 0.014300257 0.105210185
000200 80 03 e1 bc a0 72 ff 3c 40 e0 0a 3d ca c5 6a 3e
       -0.02746749 0.031182587 0.033905268 0.22927013
000210 50 14 43 3d 60 13 6a be 2a 9e 34 be 0c 86 56 be
       0.047626793 -0.22858953 -0.1763846 -0.20949572
000220 5a 5b 62 3e a0 6a 2c bc 08 75 8f 3d 94 57 70 3e
       0.2210516 -0.010523468 0.07004744 0.23470908
000230 74 79 f6 bd c0 42 57 3e b8 1c 49 bd 68 c0 36 3e
       -0.12034884 0.21021557 -0.049099654 0.17846835
000240 5a d5 56 3e 68 c6 4d 3d 7a 19 53 be a6 fc 47 3e
       0.20979825 0.050238043 -0.20615187 0.19529971
000250 c4 fb 1c 3e 0a 69 78 3e 00 43 f5 3c 70 2c 01 3d
       0.15330416 0.24258819 0.029939175 0.03153652
000260 10 20 38 3e e8 c0 f2 3d 7c 55 7e 3e 9e e1 53 be
       0.17980981 0.118532 0.24837297 -0.20691535
000270 2c 14 53 be 20 e5 57 3c 48 0e 1f bd 32 d2 0d be
       -0.20613164 0.013177186 -0.03883198 -0.13849714
000280 40 5d 22 3e 20 7d 62 3c d6 a3 33 3e 62 17 50 be
       0.15855885 0.013823777 0.17542967 -0.2032142
000290 98 50 1b be 90 06 2a be b2 7b 13 3e 5c 2d c4 3d
       -0.15167463 -0.16604066 0.14402655 0.09578964
0002a0 42 20 7d 3e 98 38 59 be c8 4d 96 bd 60 c5 05 bc
       0.24719337 -0.21212995 -0.07339054 -0.008164734
0002b0 72 74 79 3e 7e ea 5f be b4 8c ad bd 3e 4d 4d be
       0.24360827 -0.21866795 -0.084741026 -0.20048997
0002c0 00 98 77 3b 60 7d 03 3d 10 45 d2 bd 00 3e 5e 3a
       0.0037779808 0.03210199 -0.10267079 0.00084778666
0002d0 20 19 fc 3c dc fe 73 3e 28 5a 64 bd dc 44 d7 3d
       0.0307737 0.2382769 -0.055750042 0.10511181
0002e0 74 91 a2 3d 60 d1 e2 3d 70 63 81 bd 04 44 55 3e
       0.07937899 0.11075091 -0.06317794 0.20826727
0002f0 a8 b5 40 bd b4 53 ee 3d 5a 5c 3f 3e 50 8c fb 3c
       -0.04704824 0.11637059 0.18687573 0.030706555
000300 e8 86 d1 3d 00 2d ba bd 60 af 8f 3d 70 56 4a 3e
       0.102308095 -0.09090614 0.07015872 0.19759536
000310 48 9e a7 3d b0 a7 10 3e 36 1e 29 be c0 7d f0 3d
       0.08184487 0.14126468 -0.16515431 0.11742735
000320 fa 86 42 be 02 11 28 3e 70 3c 2b 3d 40 52 1a bc
       -0.18996802 0.16412738 0.041805685 -0.009419024
000330 a6 83 26 3e 20 79 e2 bc 88 71 49 3e 94 97 63 be
       0.16261157 -0.027645648 0.19672215 -0.22225791
000340 30 d0 a8 bc bc cc 0e 3e e0 fb 0f be ca 63 63 be
       -0.020607084 0.13945287 -0.14060926 -0.22206035
000350 ac 81 99 3d b6 f5 6c 3e 46 64 47 3e 80 a3 ee bb
       0.07495436 0.23140606 0.19471845 -0.0072826743
000360 82 6a 22 be c0 66 45 3c f0 28 cf bc 90 c2 fe bc
       -0.15860942 0.012048423 -0.025288075 -0.031098634
000370 1a 28 06 be d2 55 27 be d4 b8 dc bd 00 20 e1 3d
       -0.13101235 -0.16341332 -0.10777441 0.10992432
000380 d0 42 a2 3c b8 7e 0b 3e 98 95 eb bd b0 ff 06 be
       0.01980725 0.13622558 -0.11503142 -0.13183475
000390 f4 ad 50 3e 6a 92 7b be 68 a9 74 be 20 e4 41 bd
       0.20378858 -0.24567571 -0.23892748 -0.047336698
0003a0 8a de 66 be 80 75 fd 3d 12 78 07 3e 12 d9 21 3e
       -0.2254583 0.12375927 0.13229397 0.15805462
0003b0 60 31 1a 3e a0 8b 88 3d 98 af 5c bd c2 18 29 be
       0.15057898 0.06667256 -0.053878397 -0.1651335
0003c0 d4 11 a0 bd 0c 96 10 3e 70 d8 a1 3c 0c c3 21 3e
       -0.078159004 0.14119738 0.019756526 0.1579706
0003d0 00 00 4f b7 00 1a f6 bc a4 55 34 3e 78 c5 7e 3e
       -1.23381615e-05 -0.030041695 0.17610794 0.24880016
0003e0 14 56 4e be 50 77 68 bd c6 5c 13 be 6a 50 53 be
       -0.20150024 -0.05675441 -0.14390859 -0.20636144
0003f0 80 bc 57 3d b6 c3 3d 3e 80 c5 a4 bd ec e7 9c 3d
       0.052670002 0.18531689 -0.08045483 0.07661423
