model-integration/src/test/models/onnx/transformer/dummy_transformer_without_type_ids.onnx (onnx, 28580 bytes, 10 tensors)

encoder.weight f4 [20, 16]
000000 5a 81 91 3d 18 8d ee 3f b8 18 85 bf 49 fb ff be
       0.0710475 1.8636808 -1.0398169 -0.49996403
000010 f2 56 ff bd c2 cf 15 bf 9e 3d bc 3e 2e 52 c1 3b
       -0.124677554 -0.5852014 0.3676576 0.005899689
000020 f0 e1 ac 3f 95 98 14 3f 8a 04 f7 3e a5 a5 3b 3f
       1.3506451 0.5804532 0.4824565 0.7329963
000030 b3 93 9c be 44 a2 70 3f 4d 3e 6e 3f 7e 4c 0c bf
       -0.30581436 0.939976 0.93063813 -0.5480422
000040 af 65 06 3e 5a 18 d6 be e4 3a 78 be 3b d7 ca be
       0.13124727 -0.41815454 -0.24241215 -0.39617333
000050 18 8e da 3e da f7 0e 3f 2a ec 08 40 a1 11 91 be
       0.42686534 0.5584694 2.1394143 -0.28333762
000060 d2 97 18 c0 1d 98 ee bf 26 88 ab 3e fd f4 4a be
       -2.3842664 -1.8640171 0.3350231 -0.19820018
000070 56 18 0b bf 70 02 ea be b5 c3 31 3d b8 26 fe 3f
       -0.5433401 -0.45704985 0.04339953 1.9855566
000080 13 d8 f1 3e fb 64 b5 3f d2 f4 8d 3e b0 88 95 bf
       0.47235164 1.4171442 0.27725846 -1.1682339
000090 33 45 ea 3f 8d 40 c0 bf f6 a6 22 3f 42 11 a2 be
       1.8302368 -1.5019699 0.6353601 -0.31653792
0000a0 c5 92 eb 3e f8 76 82 3f 1f 21 1c bf 2c b8 11 3f
       0.46010414 1.0192556 -0.6098804 0.5692165
0000b0 80 fc a6 bf 3b 9d 62 bf 6d f7 a2 bf 23 32 70 3f
       -1.3045807 -0.88521165 -1.2731758 0.938265
0000c0 5b 3a 16 3e cd 41 0c 3d ad 4c f7 3f 74 b5 07 bf
       0.14670698 0.03424244 1.9320275 -0.5301125
0000d0 30 4a f5 3d 90 7e 1c bf a6 93 6f bf d0 e4 94 3f
       0.11977041 -0.6113062 -0.9358467 1.1632328
0000e0 fe 16 14 be 53 2a 9a 3c e1 12 7c 3f fd 13 21 3f
       -0.14461896 0.01881901 0.98466307 0.62921125
0000f0 11 bb dc 3e 65 26 eb bd 63 ee ce bf b1 d5 64 bf
       0.4311147 -0.114819326 -1.61665 -0.8938857
000100 70 88 9b bf 38 2c b5 be b9 ca ce bf ec f3 ad bf
       -1.2151012 -0.353853 -1.6155616 -1.3590064
000110 99 6d c2 3f b9 1c 4e 3f 7e ae e8 3f 6e 3e 7c 3e
       1.5189697 0.8051258 1.8178251 0.2463319
000120 cd 73 64 bf 4f 8f 80 bf 84 ae c9 3f 18 30 0f 40
       -0.892392 -1.0043734 1.5756383 2.2373104
000130 9d ca e2 be d0 6b 7c bd 4c bb d6 3e 3f e6 db bd
       -0.44295207 -0.061626256 0.4193977 -0.10737275
000140 62 e3 b7 3f 8a b5 1e bf f5 11 fe 3f 26 9a b7 bd
       1.4366267 -0.61995757 1.984923 -0.08964948
000150 24 f7 89 bc 8d f0 7e 3c ce 81 d8 3d e4 99 3d 3e
       -0.016841479 0.015560281 0.10571633 0.18515736
000160 34 ea 28 bf eb 9e bc bf 7e a3 0a 3e 5e 7e b9 3f
       -0.65982366 -1.4735998 0.1353893 1.4491689
000170 26 60 de 3d fd 52 bf 3f 1a 53 51 bf 4c 88 92 bf
       0.108581826 1.4947201 -0.8176743 -1.1447845
000180 b2 f2 0a bf c1 69 04 3f 10 09 c6 be a1 d7 37 3f
       -0.54276574 0.5172387 -0.3867879 0.718134
000190 1f c2 b9 3e c7 38 ba be 98 83 51 3e 89 b6 bc 3e
       0.36280915 -0.36371443 0.20460355 0.36858013
0001a0 b4 17 53 bf 56 24 40 3f 7e 2c 29 3e 2e 7e 8d be
       -0.82458043 0.75055444 0.16520879 -0.2763533
0001b0 3d 70 be 3d 49 03 58 3e ea d9 7c 3f 65 9b dc be
       0.092987515 0.21095003 0.9877001 -0.43087307
0001c0 56 6a 98 be 34 83 f2 bf 32 fc a3 3f 94 4d fe 3f
       -0.29768628 -1.894629 1.2811339 1.9867425
0001d0 04 b0 4c bf 7c 0e aa 3f 87 e6 be 3e 9a d3 a2 3f
       -0.7995608 1.328567 0.37285253 1.2720826
0001e0 a9 89 a0 bd 0c c2 29 3f 7c b3 ac be 44 e0 e0 be
       -0.078387566 0.6631172 -0.33730686 -0.439211
0001f0 83 4a 33 bf b5 a4 e3 be 0f 56 7c 3f b3 dc 2f bf
       -0.7003557 -0.444616 0.98568815 -0.68696135
000200 50 ad c6 3f e3 88 dc bf 67 b0 a2 3e f5 fd 73 3e
       1.5521641 -1.7229275 0.3177521 0.23827346
000210 bb 34 87 bf f6 6e 91 bc f0 9a 5c be 4d bc 37 bf
       -1.0562967 -0.017753106 -0.21543479 -0.717717
000220 68 4b 62 bf 28 e1 04 40 17 06 a8 bd d2 5c f4 be
       -0.8839631 2.0762424 -0.082042865 -0.47727066
000230 cd e3 48 bf 6a 4b 22 bf f1 8e 1b bf 8f 74 a4 ba
       -0.78472596 -0.6339632 -0.60764986 -0.0012546944
000240 2b 17 bc 3f 46 af 4e 3f 02 54 a5 be 71 bd a3 3e
       1.469457 0.80736196 -0.32290655 0.3198047
000250 f0 ff 22 bf 34 99 01 bf 52 d1 00 3f ff 10 e8 3e
       -0.6367178 -0.50624394 0.503194 0.45325467
000260 77 07 eb 3f 21 9e 00 3f 5a d7 85 be b7 eb 63 bf
       1.8361653 0.50241286 -0.26140863 -0.8903155
000270 b3 29 96 be 09 4c 6f bc ff ea 6a 3f c7 98 ca 3e
       -0.2932869 -0.014605531 0.91764826 0.39569685
000280 42 e4 84 3e 35 45 04 3c 15 44 0e bf 52 63 48 3f
       0.25955397 0.008073141 -0.55572635 0.7827655
000290 87 2b d1 bd 76 37 05 bf a5 2a 85 3f e4 0c ab bd
       -0.1021338 -0.5203775 1.0403639 -0.08352068
0002a0 1b 97 ad 3f c8 4a 82 3f 3c 0f a6 bf 58 d7 97 bf
       1.3561739 1.0179071 -1.2973399 -1.1862593
0002b0 a9 93 45 3e c0 99 87 3e 8e 1c 5b 3f 10 6c fb 3d
       0.19294609 0.2648449 0.85590446 0.12276471
0002c0 44 f9 28 be 0c c1 5f be 94 23 c9 bd 99 dd 7d be
       -0.16501337 -0.21850985 -0.09821239 -0.24791564
0002d0 33 61 13 bf 4b 3f a0 3e 71 29 dd be 89 f8 64 bf
       -0.5757019 0.3129829 -0.4319568 -0.89441735
0002e0 31 58 e8 ba aa 21 1f bf 2c 89 93 3d 95 05 43 bf
       -0.0017726478 -0.6216074 0.07203898 -0.7618039
0002f0 10 b6 21 bf f4 d8 3c bf a5 07 91 3e 9b 1e 7b 3f
       -0.6316843 -0.73768544 0.28326145 0.98093575
000300 c0 95 17 3e 76 4c 20 bf 48 07 ab 3f 81 39 45 3f
       0.14803219 -0.6261667 1.3361597 0.7704087
000310 ac 3d b8 3d aa 8e ed be fd 10 e0 be 90 5e d3 be
       0.08996138 -0.46397907 -0.4376296 -0.41283083
000320 bb ab 52 3f 37 11 d2 3f 12 ec 9a 3f 16 2c d5 bf
       0.8229329 1.6411504 1.2103293 -1.6654079
000330 f9 e3 73 be 16 5a 62 3f 78 d5 4b be e6 59 1a bb
       -0.23817433 0.8841871 -0.1990565 -0.0023552119
000340 69 c6 28 40 80 1f b4 3e f1 7e dc 3d 63 ca 9a 3f
       2.63711 0.35180283 0.107664 1.2093014
000350 c0 bd 54 3e 25 16 f8 3e 59 d7 94 bf f8 e2 83 bf
       0.20775509 0.48454395 -1.1628219 -1.030364
000360 8d ec d9 3e 31 da 21 3f 73 20 5e bf da 9c c1 3f
       0.42563286 0.6322356 -0.86768264 1.5125992
000370 a5 10 1c bf bf 0a a2 bf 64 c9 ea bf 3d 37 a8 3f
       -0.609629 -1.265953 -1.834271 1.3141857
000380 9b 20 d0 3e c9 bf 94 3f 59 d0 e2 bf ed fd 05 bf
       0.40649876 1.1621028 -1.7719833 -0.52340585
000390 16 c2 3d 3e 31 88 10 bd a8 de eb 3e db de 03 3f
       0.18531069 -0.035286132 0.4606831 0.51511925
0003a0 1b ae 36 bf e5 51 61 bf c3 7a 40 be 16 be 6e bd
       -0.71359414 -0.88015586 -0.1879683 -0.05828675
0003b0 09 fb d8 3e 57 bf a2 bf e3 52 81 bf da 00 10 bf
       0.42379025 -1.2714642 -1.010342 -0.562513
0003c0 7a f9 ab 3d bc a6 5e bf b6 82 d4 3e 12 c2 97 3e
       0.08397193 -0.86973166 0.41505975 0.2964025
0003d0 d3 f2 a8 3c e1 21 6b bf b9 05 d8 3d cc d0 5c 3e
       0.0206236 -0.9184857 0.105479665 0.21564025
0003e0 ef e1 b4 3f d0 4b a0 be 5a 72 7e 3d dc 83 79 be
       1.413145 -0.3130784 0.062120773 -0.24366707
0003f0 9f 7f dc bf 27 21 ee 3f bb 06 81 3f 25 91 4e 3f
       -1.7226447 1.8603867 1.0080179 0.8069022

transformer_encoder.layers.0.self_attn.in_proj_bias f4 [48]
000000 00 00 00 00 00 00 00 00 00 00 00 00 00 00 00 00
       0.0 0.0 0.0 0.0
000010 00 00 00 00 00 00 00 00 00 00 00 00 00 00 00 00
       0.0 0.0 0.0 0.0
000020 00 00 00 00 00 00 00 00 00 00 00 00 00 00 00 00
       0.0 0.0 0.0 0.0
000030 00 00 00 00 00 00 00 00 00 00 00 00 00 00 00 00
       0.0 0.0 0.0 0.0
000040 00 00 00 00 00 00 00 00 00 00 00 00 00 00 00 00
       0.0 0.0 0.0 0.0
000050 00 00 00 00 00 00 00 00 00 00 00 00 00 00 00 00
       0.0 0.0 0.0 0.0
000060 00 00 00 00 00 00 00 00 00 00 00 00 00 00 00 00
       0.0 0.0 0.0 0.0
000070 00 00 00 00 00 00 00 00 00 00 00 00 00 00 00 00
       0.0 0.0 0.0 0.0
000080 00 00 00 00 00 00 00 00 00 00 00 00 00 00 00 00
       0.0 0.0 0.0 0.0
000090 00 00 00 00 00 00 00 00 00 00 00 00 00 00 00 00
       0.0 0.0 0.0 0.0
0000a0 00 00 00 00 00 00 00 00 00 00 00 00 00 00 00 00
       0.0 0.0 0.0 0.0
0000b0 00 00 00 00 00 00 00 00 00 00 00 00 00 00 00 00
       0.0 0.0 0.0 0.0

transformer_encoder.layers.0.self_attn.out_proj.weight f4 [16, 16]
000000 16 bd 0a be 50 77 7b be 4c 5e a5 bd fe d0 3f 3e
       -0.13548693 -0.24557233 -0.08074626 0.18732068
000010 38 ff 0f 3e c4 ce c2 3d 84 7a 9b bd 90 90 30 3d
       0.14062202 0.09512094 -0.075917274 0.043106616
000020 d4 19 54 be fe d6 71 be f0 23 0f be 6c 33 15 3e
       -0.20712978 -0.2361717 -0.13978553 0.14570397
000030 7e ee 23 be 7c 9b 00 3e 48 a7 3b 3e e0 7d f8 bd
       -0.16008946 0.12559313 0.18325531 -0.12133384
000040 6a 32 22 3e 74 8b 5f be 20 83 70 be a8 dd ae bd
       0.15839544 -0.21830541 -0.2348752 -0.08538371
000050 b0 e9 a5 3d 84 d7 eb 3d c6 ef 1e 3e dc 45 ba 3d
       0.08101213 0.11515716 0.15521154 0.09095356
000060 16 05 01 3e ba 67 68 3e 16 c5 7b 3e 00 b2 0e ba
       0.12599596 0.22695819 0.24586901 -0.0005443394
000070 9a 2f 54 3e e8 5d cb bd 6c 7b cf 3d 30 5b 41 3e
       0.20721284 -0.099300206 0.10130963 0.18882442
000080 f0 46 98 3d 00 77 b1 ba 3e c6 5b be 96 4e 71 3e
       0.07435405 -0.0013539493 -0.21462342 0.23565134
000090 10 c6 27 3e 74 df c5 3d 40 c6 70 3d f4 e3 4e 3e
       0.16384149 0.09661761 0.058782816 0.20204145
0000a0 08 f4 e0 3d 4e b4 2a 3e c0 9a 19 3e c8 59 9c bd
       0.10984045 0.16670343 0.15000439 -0.07634312
0000b0 3c 92 18 be bc b1 0d 3e f2 b6 7f be c4 41 59 be
       -0.14899534 0.13837332 -0.24972132 -0.21216494
0000c0 0c fa 9c 3d 8a 15 4e be 70 6a d7 bd 2c d8 8c 3d
       0.0766488 -0.20125404 -0.10518348 0.06877169
0000d0 c2 54 34 3e 08 bf 43 3e f2 50 53 3e 5a 79 22 3e
       0.17610458 0.19115841 0.20636347 0.15866604
0000e0 c8 6c 7e 3d 0a 87 23 be f4 df d4 bd 98 25 27 be
       0.06211546 -0.15969482 -0.10394278 -0.16322935
0000f0 00 b3 41 be 40 a0 20 3c 2c 5a 2c 3e e8 60 19 3d
       -0.1891594 0.009803832 0.16831273 0.037445933
000100 a2 5b 7e 3e e6 9e 0b 3e e4 2e ed bd e2 02 09 be
       0.24839643 0.13634834 -0.11581209 -0.13380006
000110 78 76 3e bd 00 30 f9 b9 20 a3 07 3e 20 2c 73 3c
       -0.0464997 -0.00047528744 0.13245821 0.014842063
000120 40 4f 5b 3c 8e 14 0f 3e 64 36 8c bd 90 4d 8b 3d
       0.013385594 0.13972685 -0.06846312 0.06801903
000130 50 a0 b2 bc 30 41 8e 3d 06 a0 3d be 80 2d 02 be
       -0.021804959 0.06946027 -0.18518075 -0.1271267
000140 50 b8 d9 3c cc 71 61 be aa ae 2a be 10 14 5c 3e
       0.026577145 -0.22016066 -0.16668192 0.21492028
000150 54 40 36 be 08 b1 48 bd 84 04 61 be c4 df d8 bd
       -0.17797977 -0.048996955 -0.21974379 -0.10589555
000160 08 07 25 be 1e b4 7f be cc 87 20 be 80 92 68 bd
       -0.16115963 -0.24971053 -0.15676802 -0.05678034
000170 cc a8 0f 3e f4 29 fd 3d a4 98 0d be c0 37 ee bc
       0.14029235 0.123615175 -0.13827759 -0.029079318
000180 d4 5e 9f 3d c0 f4 36 3d c0 fb 63 3d ae 60 2c 3e
       0.07781759 0.044667006 0.05566001 0.16833755
000190 e0 27 6b 3c 92 0f 05 3e be 4b 39 be 0e f1 45 3e
       0.014352769 0.12994221 -0.180953 0.19330236
0001a0 d8 13 a4 3d c4 99 33 3e 5c ef a0 bd b8 db f6 3d
       0.080115974 0.17539126 -0.07858154 0.12053627
0001b0 b8 d4 c7 bd e4 bc 75 be 64 59 13 3e 90 f5 af bc
       -0.0975737 -0.23997837 0.14389569 -0.021479398
0001c0 fe 0c 4a 3e 24 a3 f5 bd b0 f1 e5 bd 60 34 33 3d
       0.19731519 -0.11994007 -0.11227739 0.04375112
0001d0 38 10 0f 3d f2 da 6d 3e f8 36 3f be 4c 8f d1 bd
       0.034927577 0.23228052 -0.18673313 -0.1023241
0001e0 26 43 76 3e e4 11 46 be a8 ba 6f 3d a4 e7 15 3e
       0.24049053 -0.19342762 0.05852762 0.14639145
0001f0 84 20 a9 3d 80 b1 34 be 72 fc 10 3e 08 ad 5c bd
       0.08258155 -0.17645836 0.141588 -0.053875953
000200 dc 19 15 be c4 4c 60 be 80 c6 84 3b dc 01 26 3e
       -0.14560646 -0.21904284 0.0040519834 0.16211647
000210 9c 2c ca 3d 38 69 b0 3d d6 5f 4f be f8 d4 e1 bd
       0.0987179 0.08613819 -0.20251402 -0.11026949
000220 80 d8 18 3d 86 65 14 3e 14 9f dc 3d 60 47 3e 3e
       0.037315845 0.14491853 0.10772529 0.18581915
000230 0e 9f 40 be 68 81 2e 3e da 0f 4a be c8 df 0f 3d
       -0.18810675 0.17041552 -0.1973261 0.035125524
000240 7a 11 3d 3e 02 28 26 3e a8 89 7a be c4 0d d4 bd
       0.18463698 0.162262 -0.24466574 -0.10354188
000250 e8 54 6d 3d b2 3c 2c 3e 9c ff d8 3d a6 aa 24 3e
       0.0579423 0.16820028 0.105956286 0.16080722
000260 1c 00 d2 bd 6c 2c 7a 3e 9c 7a 01 3e 8a 6a 2e 3e
       -0.10253927 0.24431008 0.12644428 0.17032829
000270 2e b2 33 be 20 9f 07 bc 38 35 29 3d 12 23 20 3e
       -0.17548439 -0.008277684 0.04131052 0.15638378
000280 38 55 bc 3d 4c ad 32 3e 78 50 b1 3d 64 55 63 be
       0.09195942 0.1744892 0.08657926 -0.22200543
000290 70 4a 1d 3d e2 39 12 be bc 8e 60 be 80 db 8b 3b
       0.038401067 -0.14279893 -0.21929449 0.00426811
0002a0 bc f8 91 bd 8a 21 04 be f0 d7 e0 3d 3a 20 08 be
       -0.071275204 -0.12903419 0.10978687 -0.13293543
0002b0 12 87 27 3e 74 46 aa 3d 36 2e 7b be 2c 84 7a be
       0.16360119 0.08314219 -0.24529347 -0.24464482
0002c0 cc 55 7f 3e 80 30 cd bc a8 ed 78 bd 54 19 bd 3d
       0.24935073 -0.02504754 -0.06077352 0.092333466
0002d0 70 04 eb 3c 24 d8 49 3e b6 f2 12 be c6 6d 1d be
       0.02868864 0.19711357 -0.143504 -0.15373906
0002e0 d0 c1 9c 3d 5e e4 45 be b6 56 69 be c6 77 0c 3e
       0.07654154 -0.19325396 -0.22786984 0.13717565
0002f0 aa bd 03 3e f4 7c 88 bd 60 a9 11 bc 9c 3e b2 3d
       0.1286532 -0.06664458 -0.00889048 0.08703348
000300 c8 40 6f be 20 e8 49 3e b0 49 5e be 10 9c 84 bc
       -0.23364556 0.19717455 -0.21707797 -0.016187698
000310 70 a4 65 3d fc 58 53 be 60 56 d1 3d f0 28 b7 bd
       0.056065023 -0.20639414 0.10221553 -0.08943355
000320 02 ec 0e 3e 98 0f e8 bd 58 2f 25 bd 68 81 03 bd
       0.13957217 -0.11331099 -0.040328354 -0.032105833
000330 c0 b3 35 3d 38 fd e6 3d 8c f0 eb 3d 18 ee af bd
       0.044360876 0.112787664 0.1152049 -0.08590335
000340 c0 3a 85 bd f2 b2 44 3e e8 ea 44 bd 08 94 d1 bd
       -0.06505346 0.19208887 -0.048075587 -0.10233313
000350 c2 93 2c be 00 95 f7 bb aa e6 77 3e c8 7f 8a 3d
       -0.1685324 -0.007555604 0.24209085 0.067626536
000360 60 97 74 be e8 41 c8 3d 1a 99 48 be 90 17 03 3d
       -0.2388587 0.097781956 -0.19589654 0.032004893
000370 c0 92 ca 3d d0 f2 bf 3c 80 fb e5 bd b0 c7 ef 3d
       0.098912716 0.023431212 -0.112296104 0.11708009
000380 a0 a4 bb 3d c0 70 8d bb 2c fe 65 3e 18 e7 88 bd
       0.09162259 -0.0043164194 0.2246024 -0.06684703
000390 e6 a5 6f 3e ba c0 60 3e ca da 14 3e 00 a0 ba ba
       0.23403129 0.2194852 0.14536586 -0.0014238358
0003a0 f4 09 87 bd d8 24 ec bd 3a 33 73 3e 10 ed e3 bc
       -0.06593695 -0.11530465 0.2375001 -0.027823001
0003b0 2c 55 d7 bd aa 1b 57 3e 28 c7 2e 3e 64 76 86 bd
       -0.10514292 0.21006647 0.1706816 -0.0656555
0003c0 88 ea 77 3d 80 39 de 3d 34 52 80 3d a0 2a 3a 3c
       0.0605264 0.10850811 0.06265679 0.011362702
0003d0 d4 b0 8b 3d 2c 38 af 3d cc 56 18 3e 5c 01 c5 3d
       0.06820837 0.08555636 0.1487686 0.096194
0003e0 28 cf a8 bd 86 5a 79 3e 14 07 81 bd c4 48 77 be
       -0.08242637 0.24350938 -0.06300178 -0.24148852
0003f0 08 b4 97 bd 58 f5 b7 3d 40 93 a8 bd 08 12 52 3d
       -0.07407385 0.089823425 -0.08231211 0.051286727

transformer_encoder.layers.0.self_attn.out_proj.bias f4 [16]
000000 00 00 00 00 00 00 00 00 00 00 00 00 00 00 00 00
       0.0 0.0 0.0 0.0
000010 00 00 00 00 00 00 00 00 00 00 00 00 00 00 00 00
       0.0 0.0 0.0 0.0
000020 00 00 00 00 00 00 00 00 00 00 00 00 00 00 00 00
       0.0 0.0 0.0 0.0
000030 00 00 00 00 00 00 00 00 00 00 00 00 00 00 00 00
       0.0 0.0 0.0 0.0

transformer_encoder.layers.0.linear1.bias f4 [32]
000000 2a 9f 37 be da f1 73 be 64 da 2a 3e 38 fa e1 bd
       -0.1793181 -0.23822728 0.16684872 -0.110340536
000010 04 1d bb bd 9e 87 35 3e 4c 17 3d 3e f8 7e 5d be
       -0.09136394 0.17727515 0.18465918 -0.21630466
000020 00 e1 c2 3c 0c e7 8a bd 50 08 a1 3c 1e 1d 1a be
       0.023788929 -0.0678235 0.019657284 -0.1505017
000030 50 84 59 bd 86 ae 03 3e c0 96 8b 3d 32 9e 36 be
       -0.0531047 0.12859544 0.06815863 -0.17833784
000040 f4 9f 21 be a2 86 71 be 36 15 32 be a6 35 00 be
       -0.15783674 -0.23586515 -0.17390904 -0.12520465
000050 80 04 0a 3b 58 f4 f9 3d 1c f9 6b be c0 18 54 3e
       0.002105981 0.12204808 -0.23044246 0.20712566
000060 a0 f9 b7 bd 04 92 a3 bd a0 a1 74 3e 46 03 79 3e
       -0.08983159 -0.07986835 0.2388978 0.24317655
000070 d0 12 0a 3e 26 06 78 3e be 9a 54 be 80 ce 7b bc
       0.13483739 0.24221095 -0.20762154 -0.015369058

transformer_encoder.layers.0.linear2.bias f4 [16]
000000 87 26 5d bd da 8f 9c 3d 2a e0 c8 bc ae 9a 46 3d
       -0.05399182 0.07644625 -0.024520952 0.048487358
000010 41 bb 20 3e ba c9 17 be 54 63 39 bd bd 6a 21 be
       0.15696432 -0.14823046 -0.045260742 -0.15763374
000020 d9 38 01 3e 1a bf 81 3b a4 89 c2 bd f8 18 ad b9
       0.12619342 0.0039595487 -0.09498909 -0.00033015735
000030 f0 88 93 bd aa 5f cf bd d2 cf 14 be 69 af 1b bd
       -0.07203853 -0.10125668 -0.14532402 -0.03800908

transformer_encoder.layers.0.norm1.weight f4 [16]
000000 00 00 80 3f 00 00 80 3f 00 00 80 3f 00 00 80 3f
       1.0 1.0 1.0 1.0
000010 00 00 80 3f 00 00 80 3f 00 00 80 3f 00 00 80 3f
       1.0 1.0 1.0 1.0
000020 00 00 80 3f 00 00 80 3f 00 00 80 3f 00 00 80 3f
       1.0 1.0 1.0 1.0
000030 00 00 80 3f 00 00 80 3f 00 00 80 3f 00 00 80 3f
       1.0 1.0 1.0 1.0

onnx::MatMul_257 f4 [16, 48]
000000 e7 ee 5e be 1f 85 e9 3d 70 af 5f be 2e ff 17 3e
       -0.21770822 0.11402344 -0.21844268 0.14843437
000010 6c e7 ca 3c c6 9e 22 3e 98 93 fb bc 45 80 09 be
       0.024768554 0.1588088 -0.030710027 -0.13427837
000020 4a e3 85 bd 23 6c 95 3e 55 06 88 3c 70 16 d8 3c
       -0.065374926 0.29184064 0.016604582 0.026377887
000030 a2 19 95 3e db 83 68 be dc 27 be bc e2 5e 64 be
       0.2912112 -0.22706549 -0.023212366 -0.2230182
000040 80 9e 9c be fc 40 d3 bc 2a c2 07 3e d5 40 40 bc
       -0.30589676 -0.025787823 0.13257661 -0.011734207
000050 4d 02 94 be 96 64 30 be 29 61 33 bd 65 37 c9 3d
       -0.28908005 -0.1722587 -0.04379383 0.09825019
000060 e0 91 3e 3c 12 25 1d be fe 9a 8e be e2 b9 3d be
       0.011631459 -0.15346172 -0.27852625 -0.1852794
000070 6b 4e 87 be a4 1b 8c be 77 a4 1f 3e e5 31 69 bd
       -0.26427016 -0.27364838 0.15590082 -0.05693235
000080 27 a3 9b 3d 55 0c aa 3a 48 6d 2a 3e cb f0 92 3e
       0.07599478 0.0012973646 0.1664325 0.28699335
000090 93 43 fc bb 61 34 60 3e 67 17 73 be f2 7b e8 3d
       -0.007698485 0.21894981 -0.23739396 0.11351766
0000a0 70 7f 82 3e 61 34 c8 3d eb 80 04 be e5 fb 97 be
       0.25487852 0.097756155 -0.12939803 -0.29684368
0000b0 a1 06 28 3e 63 b3 15 be e0 25 85 3c 60 9d 82 3b
       0.16408779 -0.14619212 0.016253412 0.0039860457
0000c0 5b 80 96 3e 34 1f 80 3d 93 f0 80 3e c8 de 90 be
       0.29394802 0.062559515 0.25183544 -0.2829497
0000d0 ba ab 69 3e 55 78 30 3e 64 eb 89 be aa 62 36 3e
       0.22819415 0.17233403 -0.269374 0.17811075
0000e0 ee 3f 67 be 79 5b a5 3c 66 24 71 be 26 40 e3 bd
       -0.22582981 0.02018522 -0.23549041 -0.1109622
0000f0 67 ad 65 bd eb d7 8c 3d 80 02 7f bd e9 69 56 be
       -0.056073572 0.068771206 -0.062258244 -0.20938839
000100 f1 25 80 bc 91 7c 06 be 52 60 b5 bd 69 72 46 be
       -0.015643092 -0.13133456 -0.08856262 -0.19379582
000110 c1 05 79 3e df f9 02 3e ef f2 9f 3d 06 b9 29 3e
       0.24318601 0.12790631 0.07810008 0.16574487
000120 f9 a0 38 be 5d 22 7d be 9d 29 77 be e3 6e 11 be
       -0.18030156 -0.2472014 -0.24136968 -0.14202456
000130 3f 10 c2 3c 6e 0d e6 3d d8 42 15 3e 37 19 94 be
       0.023689387 0.1123303 0.1457628 -0.28925487
000140 d6 e5 7c 3e 94 56 1b 3e 07 e3 40 be 2d 68 8b be
       0.2469705 0.15169746 -0.18836604 -0.27227917
000150 f3 16 9e bd a7 e1 7c 3e a1 98 1b be 44 df 8a be
       -0.07719221 0.24695455 -0.15194942 -0.27123463
000160 96 04 48 3e 67 93 4e be 44 89 3c 3e 41 ce 80 be
       0.19533 -0.20173417 0.18411738 -0.2515736
000170 58 f8 25 3e a8 78 10 be dc dd 40 3e 0c da 98 3d
       0.16208017 -0.14108527 0.18834633 0.07463464
000180 87 d4 bc 3c 45 8a da bc 30 bc 90 3d d3 31 8e be
       0.02305056 -0.02667726 0.07067144 -0.27772388
000190 0a 79 74 bd 33 a3 f6 3d 48 ea da bd 08 34 8e be
       -0.059685744 0.120428465 -0.10689217 -0.27774072
0001a0 14 f3 8d be 61 60 3f be 60 af d4 bd 4c c3 5a 3b
       -0.27724516 -0.1868911 -0.103850126 0.0033380566
0001b0 73 92 95 3e ca a2 1c 3e fa 88 53 3e f7 ea a0 3d
       0.29213294 0.15296474 0.20657721 0.07857316
0001c0 08 5e 84 3d e3 b9 5f be 4e d9 a8 3c f8 81 82 3d
       0.064632475 -0.21848254 0.020611431 0.06372446
0001d0 a8 36 9b be e2 e1 1e 3e fa 25 e0 3c 60 a7 1f 3e
       -0.30315137 0.15515855 0.027361859 0.15591192
0001e0 43 db 99 bd 0f 00 c6 bc d8 a2 f9 3d e3 87 ba 3c
       -0.07512524 -0.02416995 0.12189263 0.022769874
0001f0 03 77 97 be cb df c1 bd 43 f1 a6 3d 50 b3 66 be
       -0.29582986 -0.09466513 0.08151486 -0.2252934
000200 9e e8 8d be 1a 55 77 be 11 51 7a 3e a3 19 1d 3e
       -0.27716535 -0.24153557 0.24444987 0.15341811
000210 33 81 a2 3d 81 5c a1 3c ab 5b d0 3d e0 cf 64 3d
       0.07934799 0.01969743 0.10173734 0.055862308
000220 f6 6f c9 bc a6 ae 71 3e 9c 21 bd 3d 90 60 6e be
       -0.02458952 0.2360178 0.09234926 -0.23279023
000230 fc 47 7c be 25 01 0a 3c 3f 35 ef ba ec 1c 06 3e
       -0.24636835 0.008423124 -0.0018250122 0.1309697
000240 a0 77 8b 3e 7a 88 8e 3e 2a 70 09 bc 7b 1f 16 3e
       0.27239704 0.27838498 -0.008388558 0.14660446
000250 94 21 b6 bc b2 29 3a 3d 9c 4c 1e be 1b b9 0d 3e
       -0.022232808 0.04544992 -0.15458912 0.13840143
000260 91 d3 5c be c6 bd 65 3e 0f ca 81 3e 5a 78 61 be
       -0.21565081 0.22435674 0.2534947 -0.22018567
000270 7f d7 8e bd f1 1d 03 be a8 1f 83 3e bb b9 c3 3d
       -0.06974696 -0.1280439 0.2561009 0.0955691
000280 a1 12 90 be 2e cd a3 3d c2 91 17 bb 38 f6 97 be
       -0.28139213 0.07998119 -0.002312765 -0.29680037
000290 a9 fe 2c be 1d 77 3d be df 53 3a be 61 20 57 bd
       -0.1689402 -0.1850247 -0.18196057 -0.052521113
0002a0 25 5e 82 3e 96 7f e5 3d 75 9a e9 3d 1c 23 05 be
       0.25462452 0.11205976 0.114064135 -0.13001674
0002b0 c0 81 b7 bd 39 34 0e 3e a6 d2 79 3d 11 cc 30 bd
       -0.08960295 0.13887109 0.060991906 -0.043163363
0002c0 12 d1 96 3d 6c e1 45 be 68 56 fc bc 4b 0d 91 be
       0.07364096 -0.19324273 -0.03080292 -0.28330454
0002d0 ca 11 c7 bd d3 eb 37 bd 95 1a 8d be 57 ed 88 3e
       -0.0972019 -0.044902634 -0.27559343 0.26743576
0002e0 a9 cf 3f 3e d5 37 8b be c2 25 17 3e 79 cc bc 3d
       0.1873156 -0.27191034 0.14760497 0.092186876
0002f0 a1 86 ce bc b6 bd 2e be b4 b3 aa bd 07 55 8b be
       -0.02521068 -0.17064556 -0.08335057 -0.27213308
000300 9e 8e 48 3e 71 8e 6e be f2 76 00 be 63 d9 07 3e
       0.19585654 -0.23296525 -0.12545374 0.1326652
000310 b3 fb 93 3e 8c b9 3f 3e 08 a3 24 3e 99 88 18 be
       0.2890297 0.18723124 0.16077816 -0.14895858
000320 30 53 44 be 40 f6 29 3e 00 26 34 3e c4 5c 47 be
       -0.19172359 0.16597843 0.17592621 -0.19468981
000330 f3 a5 6a bd af 31 b3 bd 6a a1 6e 3e 62 f9 20 be
       -0.057287168 -0.08749711 0.23303762 -0.15720132
000340 5e 4e 7e be 68 ba 88 3d a6 bc df bd f6 a4 91 3e
       -0.24834582 0.06676179 -0.10924654 0.28446168
000350 fc 5e 5e 3d 8f eb 1f be c6 f1 5f bd f4 48 87 be
       0.054289803 -0.15617202 -0.054673932 -0.26422846
000360 a6 cb 8a 3e 9a 71 98 be f0 01 88 be 1d f1 87 3e
       0.27108496 -0.2977417 -0.26563978 0.26551142
000370 a0 a6 8f be cd 0a 6b bd 54 ef 87 3d c7 e1 85 3d
       -0.28056812 -0.057383347 0.06637445 0.06537204
000380 b3 d5 59 3d 94 60 7f 3c 41 2d cd 3c 02 82 02 be
       0.053182315 0.015586991 0.025045993 -0.12744907
000390 2f 6e e6 bd 16 2e e7 3d c6 e5 46 3e 78 c0 5c be
       -0.112514846 0.11288087 0.19423589 -0.21557796
0003a0 d4 ee 64 be 5b aa 48 3d 70 90 d1 3d c2 b8 ff 3d
       -0.2235673 0.04899059 0.102326274 0.12486412
0003b0 7a f5 32 3e ee 7d 2e be 9e 46 b1 bd 5d d3 6d be
       0.17476454 -0.17040226 -0.08656047 -0.2322516
0003c0 74 e3 82 3e 61 26 95 3e 70 b6 a6 bd a2 dd 2d 3e
       0.25564158 0.29130843 -0.08140266 0.16979077
0003d0 83 f1 71 3e 7c 87 97 be 7d 11 8e bc a6 a1 81 3e
       0.23627286 -0.29595554 -0.017342323 0.2531864
0003e0 f2 bb 33 3d d8 c4 9e 3d 48 c1 a9 3d 90 a8 6c 3e
       0.04388041 0.07752389 0.082888186 0.23111176
0003f0 d0 b1 89 be e2 f1 e6 bd d1 ec 83 be 71 8c 10 bc
       -0.26893473 -0.11276604 -0.25766614 -0.008822546

onnx::MatMul_258 f4 [16, 32]
000000 c2 19 25 be 08 26 42 be 86 b0 2f 3e e2 53 11 3e
       -0.16123107 -0.1895982 0.17157182 0.14192155
000010 42 d6 37 be 8c ff 6d 3e 8e f6 7c be aa fa 03 be
       -0.17952827 0.23242015 -0.24703428 -0.1288859
000020 14 64 41 3e 78 09 9c 3d c8 14 b8 bd 8c de f0 bd
       0.18885833 0.076189935 -0.08988339 -0.117611974
000030 30 97 e3 3c 98 e4 78 3d 74 10 6e 3e 16 dc 36 be
       0.027782053 0.06076488 0.23248464 -0.17857394
000040 b4 e8 9f bd d2 8b 05 be 20 fc 9a bc 3c 49 12 be
       -0.078080565 -0.13041618 -0.01891905 -0.14285749
000050 2c 5d f0 3d 2a 70 70 be 66 78 3d be b0 0d c2 3c
       0.11736521 -0.23480287 -0.1850296 0.023688167
000060 a6 5d 0f be 9a 14 58 3e 3a a9 14 be d6 ca 46 3e
       -0.14000568 0.21101609 -0.1451768 0.19413313
000070 dc 44 66 3e 16 c0 72 3e 02 84 25 be 30 d7 bb bc
       0.22487205 0.23706087 -0.16163638 -0.022929758
000080 b0 75 44 bd 38 40 69 bd c0 f9 ad 3d a4 65 0f 3e
       -0.047963798 -0.05694601 0.08494902 0.14003617
000090 54 3f d6 3d 14 19 a2 3d b8 ef b0 bd b0 fc cb bd
       0.10461298 0.079149395 -0.08639473 -0.09960306
0000a0 5a f4 05 3e c0 ca 1a bc 18 6a 08 bd c8 97 8e bd
       0.13081494 -0.009447753 -0.033304304 -0.06962544
0000b0 1a b9 22 be c6 8f 6b 3e 54 62 8a 3d 40 1c 31 3c
       -0.15890923 0.23004064 0.06757036 0.010809958
0000c0 d2 fd 28 3e 30 1b 45 3e 22 52 49 3e 68 3f 18 bd
       0.16503075 0.19248652 0.19660237 -0.037169844
0000d0 10 c0 65 3e 90 50 9a bc b4 a0 8f bd c0 64 97 3b
       0.22436547 -0.018837243 -0.070130736 0.0046201646
0000e0 d4 54 2d 3e b4 81 58 be 40 98 bf 3c 2e e3 1a 3e
       0.1692689 -0.21143228 0.023388028 0.15125725
0000f0 aa d4 23 be b8 58 ec bd 00 90 f2 3c 80 6a 25 3e
       -0.15999094 -0.11540359 0.02960968 0.16153908
000100 70 4d 1e 3e 36 9a 49 3e 6c 64 06 be 38 86 61 3e
       0.15459228 0.19687733 -0.13124245 0.22023857
000110 3c b0 e0 3d b6 86 03 be 82 17 59 3e 4c 91 aa 3d
       0.10971114 -0.12844357 0.21200374 0.083284944
000120 f0 3c 86 3c e0 2e e3 3c 6c 86 7b 3e 64 f1 a2 3d
       0.01638648 0.027732313 0.24562997 0.07956198
000130 24 45 70 3e 00 ba 76 3c b4 33 4f be 50 74 42 be
       0.23463875 0.015058994 -0.20234567 -0.18989682
000140 fa 85 6f be a8 9d a0 3d c0 79 2e 3d 3a 47 7f 3e
       -0.23390952 0.078425705 0.04259658 0.24929515
000150 0a 9a 36 be 88 db 41 be a8 bb 53 3e 24 fb ee bd
       -0.17832199 -0.18931401 0.20677054 -0.11668995
000160 78 fe 1f be 9a 42 1c be e0 22 35 be 7e 9d 07 be
       -0.15624416 -0.15259781 -0.17689085 -0.13243672
000170 dc fb 34 3e 4a 83 43 3e d8 3f 24 bd 10 37 f2 3d
       0.17674202 0.19093052 -0.04009995 0.118269086
000180 10 e0 ef 3d 5a 66 72 3e ea 2f 46 be 7c e7 d8 bd
       0.117126584 0.23671857 -0.19354215 -0.10591027
000190 98 3b 96 3d 68 10 55 be 9a 8a 27 3e c6 dd 58 be
       0.07335585 -0.2080704 0.16361466 -0.2117835
0001a0 70 84 e1 3d 94 d8 b5 3d 40 d3 ab bd 62 44 1b 3e
       0.110115886 0.088791996 -0.08389902 0.15162805
0001b0 74 ae 4b be 00 f0 b1 39 84 2b 7e be 68 de 95 bd
       -0.19890767 0.00033938885 -0.24821287 -0.07317811
0001c0 10 98 fe 3c 88 9b 95 3d 5e f2 5b be 20 41 9d 3d
       0.031078368 0.07305056 -0.21479174 0.07678437
0001d0 b8 e2 6e bd 64 da 25 3e 40 39 00 3d 04 8f da bd
       -0.058321685 0.1619659 0.031304598 -0.10671809
0001e0 10 c4 13 bd 30 85 4a 3d 10 4e ce bd 72 2c 4d 3e
       -0.03607565 0.049443424 -0.10073483 0.20036486
0001f0 80 f7 df 3d 90 ec af bc 14 43 4a be d8 32 d3 3d
       0.10935879 -0.021475106 -0.19752151 0.10312432
000200 40 9d b4 bd 96 6f 4c be 3a f5 68 3e 30 48 1c 3e
       -0.088190556 -0.19964442 0.22749797 0.15261912
000210 da f8 73 3e 3e ad 65 be 12 3d 6d be 54 88 91 3d
       0.23825398 -0.22429368 -0.23167828 0.07106081
000220 b4 12 05 be e4 73 5e 3e 7e 91 77 be 80 a0 3b 3e
       -0.12995416 0.21723896 -0.24176595 0.18322945
000230 0c c2 59 be 4a 29 2e be 40 e7 37 bc 7a 0b 22 3e
       -0.2126543 -0.17007938 -0.011224568 0.1582469
000240 da 6e 44 be e6 69 02 be 78 21 80 bd 44 b6 70 3e
       -0.19182912 -0.1273571 -0.06256384 0.23507029
000250 7c 53 26 be 2e b6 22 3e f8 02 6e be 80 27 46 be
       -0.16242784 0.15889809 -0.2324332 -0.19351006
000260 c0 7e d5 3b 20 9e f6 3c 80 51 ec 3b e0 f4 89 bd
       0.006515354 0.030104697 0.007211864 -0.06736159
000270 c0 f2 10 3d 3e b8 2b 3e 10 b5 c1 3d b0 df c4 3d
       0.035387754 0.16769502 0.09458363 0.096129775
000280 ae 17 37 3e 28 d5 53 be a0 e9 cb bd b0 4c 89 bc
       0.17880127 -0.20686781 -0.0995667 -0.0167602
000290 e0 50 08 be 5c 59 dc bd f4 66 11 3e 96 8e 1e be
       -0.13312101 -0.107592314 0.1419943 -0.1548408
0002a0 74 1b e0 3d ca a7 60 3e 98 fe 67 3e 90 19 d7 bd
       0.10942736 0.21939006 0.22655714 -0.105029225
0002b0 a0 a6 18 3c f8 ee 41 3d b2 3e 2a 3e 80 af bd bd
       0.00931707 0.04734704 0.16625479 -0.092619896
0002c0 98 40 d7 bd 80 23 12 be 08 8a 27 be f4 c9 87 3d
       -0.10510367 -0.14271355 -0.16361248 0.066303164
0002d0 32 c9 6e 3e ac 47 29 3e 78 88 a6 3d d6 ec 4d 3e
       0.23318937 0.16531247 0.08131498 0.20109877
0002e0 28 5e 10 3d 80 37 12 bd b0 97 50 3d f0 3e 39 3d
       0.035246044 -0.03569746 0.05092591 0.045226038
0002f0 00 17 54 3e 68 de c2 3d 20 5d a4 bc 80 24 4d bc
       0.20711899 0.09515077 -0.020063937 -0.012520909
000300 a8 86 15 3e 38 de 4b bd f6 c9 52 be 90 2d 0b 3d
       0.14602149 -0.04977247 -0.20584854 0.033979
000310 28 9b d6 3d f0 3a 35 3e 70 c1 04 3e b0 53 2d be
       0.104788125 0.17698264 0.12964416 -0.16926455
000320 f4 12 31 be fc 14 37 3e 6a 0c 35 be ee ea 38 be
       -0.17292386 0.17879099 -0.17680517 -0.18058369
000330 40 98 46 be 9c 31 fc 3d 20 ca c9 bd 18 94 b4 3d
       -0.19394016 0.1231415 -0.098530054 0.08817309
000340 28 57 05 3d 94 a9 07 be 40 c1 03 3e d6 af 1d 3e
       0.03255382 -0.13248283 0.12866688 0.15399107
000350 26 95 05 3e b0 a2 49 bd b8 98 7c be 12 60 7f 3e
       0.13045177 -0.049227417 -0.24667633 0.24938992
000360 b0 87 47 3d 4a 70 7c 3e 0e 2a 15 3e a0 27 54 3e
       0.048713386 0.2465221 0.14566824 0.2071824
000370 60 d5 fc 3c 48 52 9f 3d c4 18 43 be f8 02 6d be
       0.030863464 0.07779366 -0.19052416 -0.23145664
000380 b0 60 06 be 00 a4 2b bc 98 35 03 3e 20 00 04 bd
       -0.13122821 -0.010476112 0.12813413 -0.03222668
000390 e8 89 12 3e 48 03 32 bd 92 4c 6c be 18 74 bc bd
       0.1431042 -0.04346016 -0.23076084 -0.092018306
0003a0 f0 47 0f be e8 06 94 bd 80 7b 35 bc dc ed 10 3e
       -0.13992286 -0.0722788 -0.011076808 0.14153236
0003b0 28 84 6a 3e 2a 81 4b 3e 58 7e 87 bd ce 28 71 3e
       0.22901976 0.19873491 -0.06615895 0.23550722
0003c0 6a 8b 0e be a0 ca 89 3d 04 4b 5b be fa 7d 59 3e
       -0.1392037 0.06728101 -0.21415335 0.21239462
0003d0 12 6e 29 be 52 a7 32 be 00 06 3a bc 80 7b c1 3c
       -0.16545895 -0.1744664 -0.01135397 0.02361846
0003e0 22 d7 73 be 00 0b 1d 3e b4 ed df 3d 50 4c cb bd
       -0.23812535 0.15336227 0.1093401 -0.09926665
0003f0 e4 c4 52 3e 68 cc 11 be 30 9b f8 bd 08 9a b6 bd
       0.2058292 -0.14238131 -0.12138975 -0.08916098

onnx::MatMul_259 f4 [32, 16]
000000 f2 25 34 bd 64 4e 0f be 85 68 25 be 43 ac 82 bd
       -0.0439815 -0.13994747 -0.16153152 -0.063805126
000010 da 33 f8 3d 3c eb 22 be 10 9d 98 bc 02 48 7e bd
       0.12119265 -0.15910047 -0.01862958 -0.06208039
000020 94 22 03 bd 81 86 39 bd 27 54 f7 3d d5 24 0e 3e
       -0.0320154 -0.04529429 0.12076598 0.13881238
000030 6b c9 c7 bd 89 b2 15 3d 10 35 16 3d b9 6a 0b be
       -0.09755214 0.036547218 0.036671698 -0.1361493
000040 da 16 18 3e 5f 0e 03 3e b3 72 84 bc e9 9a 87 3d
       0.14852467 0.12798451 -0.016167974 0.06621344
000050 30 42 ea 3d 0d 64 0f 3e b8 a4 e2 3d 29 ac 78 bd
       0.114384055 0.1400301 0.11066574 -0.06071106
000060 af 44 0f be 1d a8 0b bc 86 38 df bc 78 42 df 3c
       -0.13991044 -0.008523968 -0.027248632 0.027253374
000070 7e f4 9a 3d 0a c5 85 bd cd a8 ce 3d cc 87 a2 3d
       0.075661644 -0.06531723 0.1009079 0.079360574
000080 c3 e3 0d 3e ea 2f 25 be 8c 91 90 3d cf db 1e be
       0.13856415 -0.16131559 0.07059011 -0.15513538
000090 e0 01 ab bd b5 3e 19 be 53 b7 f3 bd 11 a4 f9 3d
       -0.08349967 -0.14965327 -0.11900201 0.12189496
0000a0 e4 7c a0 3c f2 6b 02 be 34 47 66 3d f1 05 87 3d
       0.019590802 -0.1273649 0.05622025 0.0659293
0000b0 49 fe 02 3e c9 d0 e5 bd 34 ab f3 3d cc 03 25 bc
       0.12792315 -0.11221463 0.11897889 -0.010071706
0000c0 92 42 d8 bc d4 3e 23 3e 0c bc 13 bd 52 3d 17 bd
       -0.02639893 0.15941936 -0.036068007 -0.036923714
0000d0 f0 0a 0d 3e 40 64 0d 3e 43 dd fc 3d c9 96 14 3d
       0.13773704 0.13807774 0.1234689 0.036276612
0000e0 1e 70 2e be 8f 94 30 be 5c b1 94 3d e1 18 00 be
       -0.17034957 -0.1724417 0.07260391 -0.1250949
0000f0 e6 d4 99 bc 11 17 81 bd c8 8c 4a 3d f9 bb 04 3d
       -0.018778276 -0.06303228 0.049450666 0.032405827
000100 81 33 96 3d a2 40 1c be 50 26 64 3b 0a 09 17 3d
       0.07334042 -0.1525903 0.0034812875 0.036873855
000110 bb d6 cc 3c 36 8a c9 3d 61 9e 2f 3c 58 f5 07 be
       0.025004735 0.09840815 0.010718913 -0.13277185
000120 a8 97 5e 3d 82 d2 a8 3d fa c1 16 3d ef f7 ef bc
       0.05434385 0.08243276 0.036806084 -0.029293029
000130 a6 67 f6 bd f8 ba 0f 3e fe 0d 0c 3e cc d2 b9 3d
       -0.12031488 0.14036167 0.13677213 0.090734094
000140 8e 79 0c 3e b1 b5 2b be 28 c4 80 bd f2 50 9f 3c
       0.13718244 -0.16768529 -0.06287414 0.019447777
000150 79 4e 34 bd 08 81 0f 3e a0 0b 24 be 2f bd ee bd
       -0.04402015 0.14014065 -0.1602006 -0.11657178
000160 62 75 28 3c 54 49 1a bd 66 10 10 3e 47 27 93 bd
       0.0102818925 -0.037667587 0.14068756 -0.07185226
000170 96 11 ad bc cb 47 33 3e 02 5e 22 3e 88 06 22 be
       -0.02112655 0.17507856 0.15856174 -0.15822804
000180 bf 8d 2e be d0 36 01 be 6f 3b 04 3d 97 6d c6 bd
       -0.1704626 -0.12618566 0.032283243 -0.09688871
000190 0e 4c 1c 3e cf 4d e0 bd de f0 32 be 4f 0a 0b 3e
       0.15263388 -0.10952341 -0.17474696 0.13578151
0001a0 af f7 f9 bd 68 bd dd bd 92 40 86 3b eb e6 45 3d
       -0.12205445 -0.10827142 0.004097053 0.048315924
0001b0 9d 33 cf ba ef 5b f2 3c af 0e 3b 3b ac 40 08 be
       -0.0015808229 0.029584853 0.0028542688 -0.1330592
0001c0 b3 56 e7 3d de d7 f0 3c 1c b3 2b 3e 7d c5 98 bd
       0.112958334 0.029399808 0.16767544 -0.07459543
0001d0 9d df 7a bd 93 c9 a5 bd d7 98 36 3d 3a d6 18 3d
       -0.06124841 -0.08095088 0.044579353 0.037313677
0001e0 08 ad d0 3b 41 4e 15 3e c0 d3 26 be 96 f6 0e 3e
       0.006368283 0.14580633 -0.16291714 0.13961253
0001f0 8d d1 7c bd 25 3d 67 3d ac 7a 25 be ec d8 4f bd
       -0.06172328 0.056454796 -0.16160077 -0.050743982
000200 b4 36 3f bc 4e 40 91 3d dc 8e b9 bc d8 66 88 3d
       -0.011670757 0.07092343 -0.022651128 0.06660241
000210 58 96 18 bc 6a f0 18 bc e7 44 0e 3e c3 01 2e 3e
       -0.0093131885 -0.009334663 0.13893472 0.1699286
000220 6e d4 8b bd 82 e0 28 3c 55 b1 9d bd 13 4d 35 bd
       -0.06827627 0.010307433 -0.07699839 -0.044262957
000230 d8 3e 0d be bd da 20 bd 20 18 16 3e 07 9b 08 3d
       -0.13793504 -0.039271105 0.1465764 0.03335097
000240 81 da f7 3d a6 cb 24 3e e0 cf 6a 3d f4 18 b0 3d
       0.12102223 0.1609331 0.05732715 0.085985094
000250 1e 92 89 3c 80 d2 15 3e 79 82 65 bd 99 43 63 3c
       0.016793307 0.1463108 -0.05603263 0.013871097
000260 7b d5 27 3e 4b 27 9b 3c a7 1e c1 3d 10 02 92 3c
       0.1639003 0.018939635 0.094296746 0.01782325
000270 35 cd 02 3e c0 b9 2e 3e d9 54 4b bd e3 7d a6 bd
       0.12773593 0.17063046 -0.049641464 -0.0812948
000280 ac 2e 3d 3d ad 02 fc 3d 14 98 96 3c a3 15 eb bc
       0.046187088 0.12305198 0.018383063 -0.02869684
000290 a0 ef 08 3e 56 6f dd 39 34 4c aa bd da 0c 9d bd
       0.1337266 0.00042235357 -0.08315316 -0.07668467
0002a0 51 5c e0 3d 5e c5 0e 3e 02 77 2a be 78 8c 9a 3d
       0.10955108 0.13942477 -0.1664696 0.075463235
0002b0 f9 16 54 bd 02 aa e9 3c 3c 79 0e 3e 47 00 3b 3c
       -0.05177972 0.028523449 0.13913435 0.01141364
0002c0 94 ff 28 bd cd 9b 21 bd cf e6 06 bd 8c 5a 09 3e
       -0.041259363 -0.039455224 -0.03293496 0.13413447
0002d0 b4 62 e0 3d 8e c5 0e be fc a2 a3 bd ce e6 e5 3d
       0.10956326 -0.13942549 -0.07990071 0.11225663
0002e0 6c ec 8a 3d 0d e6 c4 bd da 16 17 bd 63 18 1b be
       0.06783375 -0.09614191 -0.036887027 -0.15146022
0002f0 f9 c5 de 3d 88 46 46 bd 78 16 f5 3b 4d 66 13 3e
       0.10877604 -0.048407108 0.007479485 0.14394493
000300 27 67 c9 bd 40 45 83 3b 8a 6f fe bd d9 21 f9 bd
       -0.09834128 0.004006058 -0.12423618 -0.12164659
000310 27 21 51 3d ba ac 5c bd 95 c7 d2 3d ba ca 2b bd
       0.051057007 -0.053875662 0.102919735 -0.041941382
000320 8f 41 fb bd 5b aa 2f 3e a0 0b 27 be ac 45 78 3d
       -0.12268364 0.17154829 -0.16313028 0.06061332
000330 52 ee 32 be c4 b9 cb 3c 2b e4 ae bd f1 91 10 3e
       -0.17473724 0.024868853 -0.08539613 0.14118172
000340 df d2 74 3d 18 ae 58 bd 13 ad 91 3c 9c e7 0e be
       0.059771415 -0.052900404 0.017782724 -0.1395554
000350 9b 5e af 3c cd 3f 3c 3c 27 09 c3 bd b7 16 24 3e
       0.021407416 0.011489821 -0.0952323 0.1602429
000360 7a f4 a9 3d c8 d1 13 3e a3 89 30 be 2c 33 a1 3d
       0.08298583 0.14435494 -0.17240004 0.078710884
000370 56 93 2e 3e 3c e3 4c 3d 0b 1a b7 bd 72 3a af 3d
       0.17048392 0.050021395 -0.08940514 0.085560694
000380 2d fe 90 3d 15 4e 24 be 82 36 27 be f0 9f d5 3d
       0.0707973 -0.16045411 -0.16329387 0.10430896
000390 ac 22 fe 3d 5f 5c f7 3d 3d 68 f7 3d fb 67 1e 3e
       0.12408957 0.12078165 0.12080429 0.15469353
0003a0 cb 30 ac 3d a4 63 1f 3d 55 c1 22 3e ef f5 84 3d
       0.08407744 0.038913384 0.15894063 0.064922206
0003b0 b0 8e ba bd ee 81 2e be 46 a3 be 3d 14 19 53 bd
       -0.09109247 -0.17041752 0.09308486 -0.05153759
0003c0 6d 15 2a bd 86 e1 fa bd bc b5 16 3d 19 2e 3d 3d
       -0.04152434 -0.122500464 0.03679441 0.04618654
0003d0 47 93 f8 3d b6 3f 0d 3e 1c 71 1d 3e 17 56 2f 3e
       0.12137466 0.13793835 0.15375179 0.17122684
0003e0 e5 1c 99 bd 57 17 b2 3d 94 a3 ae 3c eb 3c 07 3e
       -0.07476214 0.08695858 0.021318235 0.13206832
0003f0 57 7a 07 be f5 ef 32 3e 6a 63 70 3d b1 18 d1 bb
       -0.13230263 0.17474349 0.05868856 -0.0063811173
